Model: "functional_4"
┏━━━━━━━━━━━━━━━━━━━━━━━━━━━━━━━┳━━━━━━━━━━━━━━━━━━━━━━━━━━━┳━━━━━━━━━━━━━━━━━┳━━━━━━━━━━━━━━━━━━━━━━━━━━━━┓
┃ Layer (type)                  ┃ Output Shape              ┃         Param # ┃ Connected to               ┃
┡━━━━━━━━━━━━━━━━━━━━━━━━━━━━━━━╇━━━━━━━━━━━━━━━━━━━━━━━━━━━╇━━━━━━━━━━━━━━━━━╇━━━━━━━━━━━━━━━━━━━━━━━━━━━━┩
│ input_layer_4 (InputLayer)    │ (None, 224, 224, 3)       │               0 │ -                          │
├───────────────────────────────┼───────────────────────────┼─────────────────┼────────────────────────────┤
│ rescaling_4 (Rescaling)       │ (None, 224, 224, 3)       │               0 │ input_layer_4[0][0]        │
├───────────────────────────────┼───────────────────────────┼─────────────────┼────────────────────────────┤
│ conv2d_213 (Conv2D)           │ (None, 109, 109, 64)      │           9,472 │ rescaling_4[0][0]          │
├───────────────────────────────┼───────────────────────────┼─────────────────┼────────────────────────────┤
│ batch_normalization_213       │ (None, 109, 109, 64)      │             256 │ conv2d_213[0][0]           │
│ (BatchNormalization)          │                           │                 │                            │
├───────────────────────────────┼───────────────────────────┼─────────────────┼────────────────────────────┤
│ re_lu_223 (ReLU)              │ (None, 109, 109, 64)      │               0 │ batch_normalization_213[0… │
├───────────────────────────────┼───────────────────────────┼─────────────────┼────────────────────────────┤
│ max_pooling2d_4               │ (None, 54, 54, 64)        │               0 │ re_lu_223[0][0]            │
│ (MaxPooling2D)                │                           │                 │                            │
├───────────────────────────────┼───────────────────────────┼─────────────────┼────────────────────────────┤
│ conv2d_214 (Conv2D)           │ (None, 27, 27, 64)        │           4,160 │ max_pooling2d_4[0][0]      │
├───────────────────────────────┼───────────────────────────┼─────────────────┼────────────────────────────┤
│ batch_normalization_214       │ (None, 27, 27, 64)        │             256 │ conv2d_214[0][0]           │
│ (BatchNormalization)          │                           │                 │                            │
├───────────────────────────────┼───────────────────────────┼─────────────────┼────────────────────────────┤
│ re_lu_224 (ReLU)              │ (None, 27, 27, 64)        │               0 │ batch_normalization_214[0… │
├───────────────────────────────┼───────────────────────────┼─────────────────┼────────────────────────────┤
│ conv2d_215 (Conv2D)           │ (None, 27, 27, 64)        │          36,928 │ re_lu_224[0][0]            │
├───────────────────────────────┼───────────────────────────┼─────────────────┼────────────────────────────┤
│ batch_normalization_215       │ (None, 27, 27, 64)        │             256 │ conv2d_215[0][0]           │
│ (BatchNormalization)          │                           │                 │                            │
├───────────────────────────────┼───────────────────────────┼─────────────────┼────────────────────────────┤
│ re_lu_225 (ReLU)              │ (None, 27, 27, 64)        │               0 │ batch_normalization_215[0… │
├───────────────────────────────┼───────────────────────────┼─────────────────┼────────────────────────────┤
│ conv2d_216 (Conv2D)           │ (None, 27, 27, 256)       │          16,640 │ re_lu_225[0][0]            │
├───────────────────────────────┼───────────────────────────┼─────────────────┼────────────────────────────┤
│ conv2d_217 (Conv2D)           │ (None, 27, 27, 256)       │          16,640 │ max_pooling2d_4[0][0]      │
├───────────────────────────────┼───────────────────────────┼─────────────────┼────────────────────────────┤
│ batch_normalization_216       │ (None, 27, 27, 256)       │           1,024 │ conv2d_216[0][0]           │
│ (BatchNormalization)          │                           │                 │                            │
├───────────────────────────────┼───────────────────────────┼─────────────────┼────────────────────────────┤
│ batch_normalization_217       │ (None, 27, 27, 256)       │           1,024 │ conv2d_217[0][0]           │
│ (BatchNormalization)          │                           │                 │                            │
├───────────────────────────────┼───────────────────────────┼─────────────────┼────────────────────────────┤
│ add_73 (Add)                  │ (None, 27, 27, 256)       │               0 │ batch_normalization_216[0… │
│                               │                           │                 │ batch_normalization_217[0… │
├───────────────────────────────┼───────────────────────────┼─────────────────┼────────────────────────────┤
│ re_lu_226 (ReLU)              │ (None, 27, 27, 256)       │               0 │ add_73[0][0]               │
├───────────────────────────────┼───────────────────────────┼─────────────────┼────────────────────────────┤
│ conv2d_218 (Conv2D)           │ (None, 27, 27, 64)        │          16,448 │ re_lu_226[0][0]            │
├───────────────────────────────┼───────────────────────────┼─────────────────┼────────────────────────────┤
│ batch_normalization_218       │ (None, 27, 27, 64)        │             256 │ conv2d_218[0][0]           │
│ (BatchNormalization)          │                           │                 │                            │
├───────────────────────────────┼───────────────────────────┼─────────────────┼────────────────────────────┤
│ re_lu_227 (ReLU)              │ (None, 27, 27, 64)        │               0 │ batch_normalization_218[0… │
├───────────────────────────────┼───────────────────────────┼─────────────────┼────────────────────────────┤
│ conv2d_219 (Conv2D)           │ (None, 27, 27, 64)        │          36,928 │ re_lu_227[0][0]            │
├───────────────────────────────┼───────────────────────────┼─────────────────┼────────────────────────────┤
│ batch_normalization_219       │ (None, 27, 27, 64)        │             256 │ conv2d_219[0][0]           │
│ (BatchNormalization)          │                           │                 │                            │
├───────────────────────────────┼───────────────────────────┼─────────────────┼────────────────────────────┤
│ re_lu_228 (ReLU)              │ (None, 27, 27, 64)        │               0 │ batch_normalization_219[0… │
├───────────────────────────────┼───────────────────────────┼─────────────────┼────────────────────────────┤
│ conv2d_220 (Conv2D)           │ (None, 27, 27, 256)       │          16,640 │ re_lu_228[0][0]            │
├───────────────────────────────┼───────────────────────────┼─────────────────┼────────────────────────────┤
│ batch_normalization_220       │ (None, 27, 27, 256)       │           1,024 │ conv2d_220[0][0]           │
│ (BatchNormalization)          │                           │                 │                            │
├───────────────────────────────┼───────────────────────────┼─────────────────┼────────────────────────────┤
│ add_74 (Add)                  │ (None, 27, 27, 256)       │               0 │ batch_normalization_220[0… │
│                               │                           │                 │ re_lu_226[0][0]            │
├───────────────────────────────┼───────────────────────────┼─────────────────┼────────────────────────────┤
│ re_lu_229 (ReLU)              │ (None, 27, 27, 256)       │               0 │ add_74[0][0]               │
├───────────────────────────────┼───────────────────────────┼─────────────────┼────────────────────────────┤
│ conv2d_221 (Conv2D)           │ (None, 27, 27, 64)        │          16,448 │ re_lu_229[0][0]            │
├───────────────────────────────┼───────────────────────────┼─────────────────┼────────────────────────────┤
│ batch_normalization_221       │ (None, 27, 27, 64)        │             256 │ conv2d_221[0][0]           │
│ (BatchNormalization)          │                           │                 │                            │
├───────────────────────────────┼───────────────────────────┼─────────────────┼────────────────────────────┤
│ re_lu_230 (ReLU)              │ (None, 27, 27, 64)        │               0 │ batch_normalization_221[0… │
├───────────────────────────────┼───────────────────────────┼─────────────────┼────────────────────────────┤
│ conv2d_222 (Conv2D)           │ (None, 27, 27, 64)        │          36,928 │ re_lu_230[0][0]            │
├───────────────────────────────┼───────────────────────────┼─────────────────┼────────────────────────────┤
│ batch_normalization_222       │ (None, 27, 27, 64)        │             256 │ conv2d_222[0][0]           │
│ (BatchNormalization)          │                           │                 │                            │
├───────────────────────────────┼───────────────────────────┼─────────────────┼────────────────────────────┤
│ re_lu_231 (ReLU)              │ (None, 27, 27, 64)        │               0 │ batch_normalization_222[0… │
├───────────────────────────────┼───────────────────────────┼─────────────────┼────────────────────────────┤
│ conv2d_223 (Conv2D)           │ (None, 27, 27, 256)       │          16,640 │ re_lu_231[0][0]            │
├───────────────────────────────┼───────────────────────────┼─────────────────┼────────────────────────────┤
│ batch_normalization_223       │ (None, 27, 27, 256)       │           1,024 │ conv2d_223[0][0]           │
│ (BatchNormalization)          │                           │                 │                            │
├───────────────────────────────┼───────────────────────────┼─────────────────┼────────────────────────────┤
│ add_75 (Add)                  │ (None, 27, 27, 256)       │               0 │ batch_normalization_223[0… │
│                               │                           │                 │ re_lu_229[0][0]            │
├───────────────────────────────┼───────────────────────────┼─────────────────┼────────────────────────────┤
│ re_lu_232 (ReLU)              │ (None, 27, 27, 256)       │               0 │ add_75[0][0]               │
├───────────────────────────────┼───────────────────────────┼─────────────────┼────────────────────────────┤
│ conv2d_224 (Conv2D)           │ (None, 14, 14, 128)       │          32,896 │ re_lu_232[0][0]            │
├───────────────────────────────┼───────────────────────────┼─────────────────┼────────────────────────────┤
│ batch_normalization_224       │ (None, 14, 14, 128)       │             512 │ conv2d_224[0][0]           │
│ (BatchNormalization)          │                           │                 │                            │
├───────────────────────────────┼───────────────────────────┼─────────────────┼────────────────────────────┤
│ re_lu_233 (ReLU)              │ (None, 14, 14, 128)       │               0 │ batch_normalization_224[0… │
├───────────────────────────────┼───────────────────────────┼─────────────────┼────────────────────────────┤
│ conv2d_225 (Conv2D)           │ (None, 14, 14, 128)       │         147,584 │ re_lu_233[0][0]            │
├───────────────────────────────┼───────────────────────────┼─────────────────┼────────────────────────────┤
│ batch_normalization_225       │ (None, 14, 14, 128)       │             512 │ conv2d_225[0][0]           │
│ (BatchNormalization)          │                           │                 │                            │
├───────────────────────────────┼───────────────────────────┼─────────────────┼────────────────────────────┤
│ re_lu_234 (ReLU)              │ (None, 14, 14, 128)       │               0 │ batch_normalization_225[0… │
├───────────────────────────────┼───────────────────────────┼─────────────────┼────────────────────────────┤
│ conv2d_226 (Conv2D)           │ (None, 14, 14, 512)       │          66,048 │ re_lu_234[0][0]            │
├───────────────────────────────┼───────────────────────────┼─────────────────┼────────────────────────────┤
│ conv2d_227 (Conv2D)           │ (None, 14, 14, 512)       │         131,584 │ re_lu_232[0][0]            │
├───────────────────────────────┼───────────────────────────┼─────────────────┼────────────────────────────┤
│ batch_normalization_226       │ (None, 14, 14, 512)       │           2,048 │ conv2d_226[0][0]           │
│ (BatchNormalization)          │                           │                 │                            │
├───────────────────────────────┼───────────────────────────┼─────────────────┼────────────────────────────┤
│ batch_normalization_227       │ (None, 14, 14, 512)       │           2,048 │ conv2d_227[0][0]           │
│ (BatchNormalization)          │                           │                 │                            │
├───────────────────────────────┼───────────────────────────┼─────────────────┼────────────────────────────┤
│ add_76 (Add)                  │ (None, 14, 14, 512)       │               0 │ batch_normalization_226[0… │
│                               │                           │                 │ batch_normalization_227[0… │
├───────────────────────────────┼───────────────────────────┼─────────────────┼────────────────────────────┤
│ re_lu_235 (ReLU)              │ (None, 14, 14, 512)       │               0 │ add_76[0][0]               │
├───────────────────────────────┼───────────────────────────┼─────────────────┼────────────────────────────┤
│ conv2d_228 (Conv2D)           │ (None, 14, 14, 128)       │          65,664 │ re_lu_235[0][0]            │
├───────────────────────────────┼───────────────────────────┼─────────────────┼────────────────────────────┤
│ batch_normalization_228       │ (None, 14, 14, 128)       │             512 │ conv2d_228[0][0]           │
│ (BatchNormalization)          │                           │                 │                            │
├───────────────────────────────┼───────────────────────────┼─────────────────┼────────────────────────────┤
│ re_lu_236 (ReLU)              │ (None, 14, 14, 128)       │               0 │ batch_normalization_228[0… │
├───────────────────────────────┼───────────────────────────┼─────────────────┼────────────────────────────┤
│ conv2d_229 (Conv2D)           │ (None, 14, 14, 128)       │         147,584 │ re_lu_236[0][0]            │
├───────────────────────────────┼───────────────────────────┼─────────────────┼────────────────────────────┤
│ batch_normalization_229       │ (None, 14, 14, 128)       │             512 │ conv2d_229[0][0]           │
│ (BatchNormalization)          │                           │                 │                            │
├───────────────────────────────┼───────────────────────────┼─────────────────┼────────────────────────────┤
│ re_lu_237 (ReLU)              │ (None, 14, 14, 128)       │               0 │ batch_normalization_229[0… │
├───────────────────────────────┼───────────────────────────┼─────────────────┼────────────────────────────┤
│ conv2d_230 (Conv2D)           │ (None, 14, 14, 512)       │          66,048 │ re_lu_237[0][0]            │
├───────────────────────────────┼───────────────────────────┼─────────────────┼────────────────────────────┤
│ batch_normalization_230       │ (None, 14, 14, 512)       │           2,048 │ conv2d_230[0][0]           │
│ (BatchNormalization)          │                           │                 │                            │
├───────────────────────────────┼───────────────────────────┼─────────────────┼────────────────────────────┤
│ add_77 (Add)                  │ (None, 14, 14, 512)       │               0 │ batch_normalization_230[0… │
│                               │                           │                 │ re_lu_235[0][0]            │
├───────────────────────────────┼───────────────────────────┼─────────────────┼────────────────────────────┤
│ re_lu_238 (ReLU)              │ (None, 14, 14, 512)       │               0 │ add_77[0][0]               │
├───────────────────────────────┼───────────────────────────┼─────────────────┼────────────────────────────┤
│ conv2d_231 (Conv2D)           │ (None, 14, 14, 128)       │          65,664 │ re_lu_238[0][0]            │
├───────────────────────────────┼───────────────────────────┼─────────────────┼────────────────────────────┤
│ batch_normalization_231       │ (None, 14, 14, 128)       │             512 │ conv2d_231[0][0]           │
│ (BatchNormalization)          │                           │                 │                            │
├───────────────────────────────┼───────────────────────────┼─────────────────┼────────────────────────────┤
│ re_lu_239 (ReLU)              │ (None, 14, 14, 128)       │               0 │ batch_normalization_231[0… │
├───────────────────────────────┼───────────────────────────┼─────────────────┼────────────────────────────┤
│ conv2d_232 (Conv2D)           │ (None, 14, 14, 128)       │         147,584 │ re_lu_239[0][0]            │
├───────────────────────────────┼───────────────────────────┼─────────────────┼────────────────────────────┤
│ batch_normalization_232       │ (None, 14, 14, 128)       │             512 │ conv2d_232[0][0]           │
│ (BatchNormalization)          │                           │                 │                            │
├───────────────────────────────┼───────────────────────────┼─────────────────┼────────────────────────────┤
│ re_lu_240 (ReLU)              │ (None, 14, 14, 128)       │               0 │ batch_normalization_232[0… │
├───────────────────────────────┼───────────────────────────┼─────────────────┼────────────────────────────┤
│ conv2d_233 (Conv2D)           │ (None, 14, 14, 512)       │          66,048 │ re_lu_240[0][0]            │
├───────────────────────────────┼───────────────────────────┼─────────────────┼────────────────────────────┤
│ batch_normalization_233       │ (None, 14, 14, 512)       │           2,048 │ conv2d_233[0][0]           │
│ (BatchNormalization)          │                           │                 │                            │
├───────────────────────────────┼───────────────────────────┼─────────────────┼────────────────────────────┤
│ add_78 (Add)                  │ (None, 14, 14, 512)       │               0 │ batch_normalization_233[0… │
│                               │                           │                 │ re_lu_238[0][0]            │
├───────────────────────────────┼───────────────────────────┼─────────────────┼────────────────────────────┤
│ re_lu_241 (ReLU)              │ (None, 14, 14, 512)       │               0 │ add_78[0][0]               │
├───────────────────────────────┼───────────────────────────┼─────────────────┼────────────────────────────┤
│ conv2d_234 (Conv2D)           │ (None, 14, 14, 128)       │          65,664 │ re_lu_241[0][0]            │
├───────────────────────────────┼───────────────────────────┼─────────────────┼────────────────────────────┤
│ batch_normalization_234       │ (None, 14, 14, 128)       │             512 │ conv2d_234[0][0]           │
│ (BatchNormalization)          │                           │                 │                            │
├───────────────────────────────┼───────────────────────────┼─────────────────┼────────────────────────────┤
│ re_lu_242 (ReLU)              │ (None, 14, 14, 128)       │               0 │ batch_normalization_234[0… │
├───────────────────────────────┼───────────────────────────┼─────────────────┼────────────────────────────┤
│ conv2d_235 (Conv2D)           │ (None, 14, 14, 128)       │         147,584 │ re_lu_242[0][0]            │
├───────────────────────────────┼───────────────────────────┼─────────────────┼────────────────────────────┤
│ batch_normalization_235       │ (None, 14, 14, 128)       │             512 │ conv2d_235[0][0]           │
│ (BatchNormalization)          │                           │                 │                            │
├───────────────────────────────┼───────────────────────────┼─────────────────┼────────────────────────────┤
│ re_lu_243 (ReLU)              │ (None, 14, 14, 128)       │               0 │ batch_normalization_235[0… │
├───────────────────────────────┼───────────────────────────┼─────────────────┼────────────────────────────┤
│ conv2d_236 (Conv2D)           │ (None, 14, 14, 512)       │          66,048 │ re_lu_243[0][0]            │
├───────────────────────────────┼───────────────────────────┼─────────────────┼────────────────────────────┤
│ batch_normalization_236       │ (None, 14, 14, 512)       │           2,048 │ conv2d_236[0][0]           │
│ (BatchNormalization)          │                           │                 │                            │
├───────────────────────────────┼───────────────────────────┼─────────────────┼────────────────────────────┤
│ add_79 (Add)                  │ (None, 14, 14, 512)       │               0 │ batch_normalization_236[0… │
│                               │                           │                 │ re_lu_241[0][0]            │
├───────────────────────────────┼───────────────────────────┼─────────────────┼────────────────────────────┤
│ re_lu_244 (ReLU)              │ (None, 14, 14, 512)       │               0 │ add_79[0][0]               │
├───────────────────────────────┼───────────────────────────┼─────────────────┼────────────────────────────┤
│ conv2d_237 (Conv2D)           │ (None, 14, 14, 128)       │          65,664 │ re_lu_244[0][0]            │
├───────────────────────────────┼───────────────────────────┼─────────────────┼────────────────────────────┤
│ batch_normalization_237       │ (None, 14, 14, 128)       │             512 │ conv2d_237[0][0]           │
│ (BatchNormalization)          │                           │                 │                            │
├───────────────────────────────┼───────────────────────────┼─────────────────┼────────────────────────────┤
│ re_lu_245 (ReLU)              │ (None, 14, 14, 128)       │               0 │ batch_normalization_237[0… │
├───────────────────────────────┼───────────────────────────┼─────────────────┼────────────────────────────┤
│ conv2d_238 (Conv2D)           │ (None, 14, 14, 128)       │         147,584 │ re_lu_245[0][0]            │
├───────────────────────────────┼───────────────────────────┼─────────────────┼────────────────────────────┤
│ batch_normalization_238       │ (None, 14, 14, 128)       │             512 │ conv2d_238[0][0]           │
│ (BatchNormalization)          │                           │                 │                            │
├───────────────────────────────┼───────────────────────────┼─────────────────┼────────────────────────────┤
│ re_lu_246 (ReLU)              │ (None, 14, 14, 128)       │               0 │ batch_normalization_238[0… │
├───────────────────────────────┼───────────────────────────┼─────────────────┼────────────────────────────┤
│ conv2d_239 (Conv2D)           │ (None, 14, 14, 512)       │          66,048 │ re_lu_246[0][0]            │
├───────────────────────────────┼───────────────────────────┼─────────────────┼────────────────────────────┤
│ batch_normalization_239       │ (None, 14, 14, 512)       │           2,048 │ conv2d_239[0][0]           │
│ (BatchNormalization)          │                           │                 │                            │
├───────────────────────────────┼───────────────────────────┼─────────────────┼────────────────────────────┤
│ add_80 (Add)                  │ (None, 14, 14, 512)       │               0 │ batch_normalization_239[0… │
│                               │                           │                 │ re_lu_244[0][0]            │
├───────────────────────────────┼───────────────────────────┼─────────────────┼────────────────────────────┤
│ re_lu_247 (ReLU)              │ (None, 14, 14, 512)       │               0 │ add_80[0][0]               │
├───────────────────────────────┼───────────────────────────┼─────────────────┼────────────────────────────┤
│ conv2d_240 (Conv2D)           │ (None, 14, 14, 128)       │          65,664 │ re_lu_247[0][0]            │
├───────────────────────────────┼───────────────────────────┼─────────────────┼────────────────────────────┤
│ batch_normalization_240       │ (None, 14, 14, 128)       │             512 │ conv2d_240[0][0]           │
│ (BatchNormalization)          │                           │                 │                            │
├───────────────────────────────┼───────────────────────────┼─────────────────┼────────────────────────────┤
│ re_lu_248 (ReLU)              │ (None, 14, 14, 128)       │               0 │ batch_normalization_240[0… │
├───────────────────────────────┼───────────────────────────┼─────────────────┼────────────────────────────┤
│ conv2d_241 (Conv2D)           │ (None, 14, 14, 128)       │         147,584 │ re_lu_248[0][0]            │
├───────────────────────────────┼───────────────────────────┼─────────────────┼────────────────────────────┤
│ batch_normalization_241       │ (None, 14, 14, 128)       │             512 │ conv2d_241[0][0]           │
│ (BatchNormalization)          │                           │                 │                            │
├───────────────────────────────┼───────────────────────────┼─────────────────┼────────────────────────────┤
│ re_lu_249 (ReLU)              │ (None, 14, 14, 128)       │               0 │ batch_normalization_241[0… │
├───────────────────────────────┼───────────────────────────┼─────────────────┼────────────────────────────┤
│ conv2d_242 (Conv2D)           │ (None, 14, 14, 512)       │          66,048 │ re_lu_249[0][0]            │
├───────────────────────────────┼───────────────────────────┼─────────────────┼────────────────────────────┤
│ batch_normalization_242       │ (None, 14, 14, 512)       │           2,048 │ conv2d_242[0][0]           │
│ (BatchNormalization)          │                           │                 │                            │
├───────────────────────────────┼───────────────────────────┼─────────────────┼────────────────────────────┤
│ add_81 (Add)                  │ (None, 14, 14, 512)       │               0 │ batch_normalization_242[0… │
│                               │                           │                 │ re_lu_247[0][0]            │
├───────────────────────────────┼───────────────────────────┼─────────────────┼────────────────────────────┤
│ re_lu_250 (ReLU)              │ (None, 14, 14, 512)       │               0 │ add_81[0][0]               │
├───────────────────────────────┼───────────────────────────┼─────────────────┼────────────────────────────┤
│ conv2d_243 (Conv2D)           │ (None, 14, 14, 128)       │          65,664 │ re_lu_250[0][0]            │
├───────────────────────────────┼───────────────────────────┼─────────────────┼────────────────────────────┤
│ batch_normalization_243       │ (None, 14, 14, 128)       │             512 │ conv2d_243[0][0]           │
│ (BatchNormalization)          │                           │                 │                            │
├───────────────────────────────┼───────────────────────────┼─────────────────┼────────────────────────────┤
│ re_lu_251 (ReLU)              │ (None, 14, 14, 128)       │               0 │ batch_normalization_243[0… │
├───────────────────────────────┼───────────────────────────┼─────────────────┼────────────────────────────┤
│ conv2d_244 (Conv2D)           │ (None, 14, 14, 128)       │         147,584 │ re_lu_251[0][0]            │
├───────────────────────────────┼───────────────────────────┼─────────────────┼────────────────────────────┤
│ batch_normalization_244       │ (None, 14, 14, 128)       │             512 │ conv2d_244[0][0]           │
│ (BatchNormalization)          │                           │                 │                            │
├───────────────────────────────┼───────────────────────────┼─────────────────┼────────────────────────────┤
│ re_lu_252 (ReLU)              │ (None, 14, 14, 128)       │               0 │ batch_normalization_244[0… │
├───────────────────────────────┼───────────────────────────┼─────────────────┼────────────────────────────┤
│ conv2d_245 (Conv2D)           │ (None, 14, 14, 512)       │          66,048 │ re_lu_252[0][0]            │
├───────────────────────────────┼───────────────────────────┼─────────────────┼────────────────────────────┤
│ batch_normalization_245       │ (None, 14, 14, 512)       │           2,048 │ conv2d_245[0][0]           │
│ (BatchNormalization)          │                           │                 │                            │
├───────────────────────────────┼───────────────────────────┼─────────────────┼────────────────────────────┤
│ add_82 (Add)                  │ (None, 14, 14, 512)       │               0 │ batch_normalization_245[0… │
│                               │                           │                 │ re_lu_250[0][0]            │
├───────────────────────────────┼───────────────────────────┼─────────────────┼────────────────────────────┤
│ re_lu_253 (ReLU)              │ (None, 14, 14, 512)       │               0 │ add_82[0][0]               │
├───────────────────────────────┼───────────────────────────┼─────────────────┼────────────────────────────┤
│ conv2d_246 (Conv2D)           │ (None, 14, 14, 128)       │          65,664 │ re_lu_253[0][0]            │
├───────────────────────────────┼───────────────────────────┼─────────────────┼────────────────────────────┤
│ batch_normalization_246       │ (None, 14, 14, 128)       │             512 │ conv2d_246[0][0]           │
│ (BatchNormalization)          │                           │                 │                            │
├───────────────────────────────┼───────────────────────────┼─────────────────┼────────────────────────────┤
│ re_lu_254 (ReLU)              │ (None, 14, 14, 128)       │               0 │ batch_normalization_246[0… │
├───────────────────────────────┼───────────────────────────┼─────────────────┼────────────────────────────┤
│ conv2d_247 (Conv2D)           │ (None, 14, 14, 128)       │         147,584 │ re_lu_254[0][0]            │
├───────────────────────────────┼───────────────────────────┼─────────────────┼────────────────────────────┤
│ batch_normalization_247       │ (None, 14, 14, 128)       │             512 │ conv2d_247[0][0]           │
│ (BatchNormalization)          │                           │                 │                            │
├───────────────────────────────┼───────────────────────────┼─────────────────┼────────────────────────────┤
│ re_lu_255 (ReLU)              │ (None, 14, 14, 128)       │               0 │ batch_normalization_247[0… │
├───────────────────────────────┼───────────────────────────┼─────────────────┼────────────────────────────┤
│ conv2d_248 (Conv2D)           │ (None, 14, 14, 512)       │          66,048 │ re_lu_255[0][0]            │
├───────────────────────────────┼───────────────────────────┼─────────────────┼────────────────────────────┤
│ batch_normalization_248       │ (None, 14, 14, 512)       │           2,048 │ conv2d_248[0][0]           │
│ (BatchNormalization)          │                           │                 │                            │
├───────────────────────────────┼───────────────────────────┼─────────────────┼────────────────────────────┤
│ add_83 (Add)                  │ (None, 14, 14, 512)       │               0 │ batch_normalization_248[0… │
│                               │                           │                 │ re_lu_253[0][0]            │
├───────────────────────────────┼───────────────────────────┼─────────────────┼────────────────────────────┤
│ re_lu_256 (ReLU)              │ (None, 14, 14, 512)       │               0 │ add_83[0][0]               │
├───────────────────────────────┼───────────────────────────┼─────────────────┼────────────────────────────┤
│ conv2d_249 (Conv2D)           │ (None, 7, 7, 256)         │         131,328 │ re_lu_256[0][0]            │
├───────────────────────────────┼───────────────────────────┼─────────────────┼────────────────────────────┤
│ batch_normalization_249       │ (None, 7, 7, 256)         │           1,024 │ conv2d_249[0][0]           │
│ (BatchNormalization)          │                           │                 │                            │
├───────────────────────────────┼───────────────────────────┼─────────────────┼────────────────────────────┤
│ re_lu_257 (ReLU)              │ (None, 7, 7, 256)         │               0 │ batch_normalization_249[0… │
├───────────────────────────────┼───────────────────────────┼─────────────────┼────────────────────────────┤
│ conv2d_250 (Conv2D)           │ (None, 7, 7, 256)         │         590,080 │ re_lu_257[0][0]            │
├───────────────────────────────┼───────────────────────────┼─────────────────┼────────────────────────────┤
│ batch_normalization_250       │ (None, 7, 7, 256)         │           1,024 │ conv2d_250[0][0]           │
│ (BatchNormalization)          │                           │                 │                            │
├───────────────────────────────┼───────────────────────────┼─────────────────┼────────────────────────────┤
│ re_lu_258 (ReLU)              │ (None, 7, 7, 256)         │               0 │ batch_normalization_250[0… │
├───────────────────────────────┼───────────────────────────┼─────────────────┼────────────────────────────┤
│ conv2d_251 (Conv2D)           │ (None, 7, 7, 1024)        │         263,168 │ re_lu_258[0][0]            │
├───────────────────────────────┼───────────────────────────┼─────────────────┼────────────────────────────┤
│ conv2d_252 (Conv2D)           │ (None, 7, 7, 1024)        │         525,312 │ re_lu_256[0][0]            │
├───────────────────────────────┼───────────────────────────┼─────────────────┼────────────────────────────┤
│ batch_normalization_251       │ (None, 7, 7, 1024)        │           4,096 │ conv2d_251[0][0]           │
│ (BatchNormalization)          │                           │                 │                            │
├───────────────────────────────┼───────────────────────────┼─────────────────┼────────────────────────────┤
│ batch_normalization_252       │ (None, 7, 7, 1024)        │           4,096 │ conv2d_252[0][0]           │
│ (BatchNormalization)          │                           │                 │                            │
├───────────────────────────────┼───────────────────────────┼─────────────────┼────────────────────────────┤
│ add_84 (Add)                  │ (None, 7, 7, 1024)        │               0 │ batch_normalization_251[0… │
│                               │                           │                 │ batch_normalization_252[0… │
├───────────────────────────────┼───────────────────────────┼─────────────────┼────────────────────────────┤
│ re_lu_259 (ReLU)              │ (None, 7, 7, 1024)        │               0 │ add_84[0][0]               │
├───────────────────────────────┼───────────────────────────┼─────────────────┼────────────────────────────┤
│ conv2d_253 (Conv2D)           │ (None, 7, 7, 256)         │         262,400 │ re_lu_259[0][0]            │
├───────────────────────────────┼───────────────────────────┼─────────────────┼────────────────────────────┤
│ batch_normalization_253       │ (None, 7, 7, 256)         │           1,024 │ conv2d_253[0][0]           │
│ (BatchNormalization)          │                           │                 │                            │
├───────────────────────────────┼───────────────────────────┼─────────────────┼────────────────────────────┤
│ re_lu_260 (ReLU)              │ (None, 7, 7, 256)         │               0 │ batch_normalization_253[0… │
├───────────────────────────────┼───────────────────────────┼─────────────────┼────────────────────────────┤
│ conv2d_254 (Conv2D)           │ (None, 7, 7, 256)         │         590,080 │ re_lu_260[0][0]            │
├───────────────────────────────┼───────────────────────────┼─────────────────┼────────────────────────────┤
│ batch_normalization_254       │ (None, 7, 7, 256)         │           1,024 │ conv2d_254[0][0]           │
│ (BatchNormalization)          │                           │                 │                            │
├───────────────────────────────┼───────────────────────────┼─────────────────┼────────────────────────────┤
│ re_lu_261 (ReLU)              │ (None, 7, 7, 256)         │               0 │ batch_normalization_254[0… │
├───────────────────────────────┼───────────────────────────┼─────────────────┼────────────────────────────┤
│ conv2d_255 (Conv2D)           │ (None, 7, 7, 1024)        │         263,168 │ re_lu_261[0][0]            │
├───────────────────────────────┼───────────────────────────┼─────────────────┼────────────────────────────┤
│ batch_normalization_255       │ (None, 7, 7, 1024)        │           4,096 │ conv2d_255[0][0]           │
│ (BatchNormalization)          │                           │                 │                            │
├───────────────────────────────┼───────────────────────────┼─────────────────┼────────────────────────────┤
│ add_85 (Add)                  │ (None, 7, 7, 1024)        │               0 │ batch_normalization_255[0… │
│                               │                           │                 │ re_lu_259[0][0]            │
├───────────────────────────────┼───────────────────────────┼─────────────────┼────────────────────────────┤
│ re_lu_262 (ReLU)              │ (None, 7, 7, 1024)        │               0 │ add_85[0][0]               │
├───────────────────────────────┼───────────────────────────┼─────────────────┼────────────────────────────┤
│ conv2d_256 (Conv2D)           │ (None, 7, 7, 256)         │         262,400 │ re_lu_262[0][0]            │
├───────────────────────────────┼───────────────────────────┼─────────────────┼────────────────────────────┤
│ batch_normalization_256       │ (None, 7, 7, 256)         │           1,024 │ conv2d_256[0][0]           │
│ (BatchNormalization)          │                           │                 │                            │
├───────────────────────────────┼───────────────────────────┼─────────────────┼────────────────────────────┤
│ re_lu_263 (ReLU)              │ (None, 7, 7, 256)         │               0 │ batch_normalization_256[0… │
├───────────────────────────────┼───────────────────────────┼─────────────────┼────────────────────────────┤
│ conv2d_257 (Conv2D)           │ (None, 7, 7, 256)         │         590,080 │ re_lu_263[0][0]            │
├───────────────────────────────┼───────────────────────────┼─────────────────┼────────────────────────────┤
│ batch_normalization_257       │ (None, 7, 7, 256)         │           1,024 │ conv2d_257[0][0]           │
│ (BatchNormalization)          │                           │                 │                            │
├───────────────────────────────┼───────────────────────────┼─────────────────┼────────────────────────────┤
│ re_lu_264 (ReLU)              │ (None, 7, 7, 256)         │               0 │ batch_normalization_257[0… │
├───────────────────────────────┼───────────────────────────┼─────────────────┼────────────────────────────┤
│ conv2d_258 (Conv2D)           │ (None, 7, 7, 1024)        │         263,168 │ re_lu_264[0][0]            │
├───────────────────────────────┼───────────────────────────┼─────────────────┼────────────────────────────┤
│ batch_normalization_258       │ (None, 7, 7, 1024)        │           4,096 │ conv2d_258[0][0]           │
│ (BatchNormalization)          │                           │                 │                            │
├───────────────────────────────┼───────────────────────────┼─────────────────┼────────────────────────────┤
│ add_86 (Add)                  │ (None, 7, 7, 1024)        │               0 │ batch_normalization_258[0… │
│                               │                           │                 │ re_lu_262[0][0]            │
├───────────────────────────────┼───────────────────────────┼─────────────────┼────────────────────────────┤
│ re_lu_265 (ReLU)              │ (None, 7, 7, 1024)        │               0 │ add_86[0][0]               │
├───────────────────────────────┼───────────────────────────┼─────────────────┼────────────────────────────┤
│ conv2d_259 (Conv2D)           │ (None, 7, 7, 256)         │         262,400 │ re_lu_265[0][0]            │
├───────────────────────────────┼───────────────────────────┼─────────────────┼────────────────────────────┤
│ batch_normalization_259       │ (None, 7, 7, 256)         │           1,024 │ conv2d_259[0][0]           │
│ (BatchNormalization)          │                           │                 │                            │
├───────────────────────────────┼───────────────────────────┼─────────────────┼────────────────────────────┤
│ re_lu_266 (ReLU)              │ (None, 7, 7, 256)         │               0 │ batch_normalization_259[0… │
├───────────────────────────────┼───────────────────────────┼─────────────────┼────────────────────────────┤
│ conv2d_260 (Conv2D)           │ (None, 7, 7, 256)         │         590,080 │ re_lu_266[0][0]            │
├───────────────────────────────┼───────────────────────────┼─────────────────┼────────────────────────────┤
│ batch_normalization_260       │ (None, 7, 7, 256)         │           1,024 │ conv2d_260[0][0]           │
│ (BatchNormalization)          │                           │                 │                            │
├───────────────────────────────┼───────────────────────────┼─────────────────┼────────────────────────────┤
│ re_lu_267 (ReLU)              │ (None, 7, 7, 256)         │               0 │ batch_normalization_260[0… │
├───────────────────────────────┼───────────────────────────┼─────────────────┼────────────────────────────┤
│ conv2d_261 (Conv2D)           │ (None, 7, 7, 1024)        │         263,168 │ re_lu_267[0][0]            │
├───────────────────────────────┼───────────────────────────┼─────────────────┼────────────────────────────┤
│ batch_normalization_261       │ (None, 7, 7, 1024)        │           4,096 │ conv2d_261[0][0]           │
│ (BatchNormalization)          │                           │                 │                            │
├───────────────────────────────┼───────────────────────────┼─────────────────┼────────────────────────────┤
│ add_87 (Add)                  │ (None, 7, 7, 1024)        │               0 │ batch_normalization_261[0… │
│                               │                           │                 │ re_lu_265[0][0]            │
├───────────────────────────────┼───────────────────────────┼─────────────────┼────────────────────────────┤
│ re_lu_268 (ReLU)              │ (None, 7, 7, 1024)        │               0 │ add_87[0][0]               │
├───────────────────────────────┼───────────────────────────┼─────────────────┼────────────────────────────┤
│ conv2d_262 (Conv2D)           │ (None, 7, 7, 256)         │         262,400 │ re_lu_268[0][0]            │
├───────────────────────────────┼───────────────────────────┼─────────────────┼────────────────────────────┤
│ batch_normalization_262       │ (None, 7, 7, 256)         │           1,024 │ conv2d_262[0][0]           │
│ (BatchNormalization)          │                           │                 │                            │
├───────────────────────────────┼───────────────────────────┼─────────────────┼────────────────────────────┤
│ re_lu_269 (ReLU)              │ (None, 7, 7, 256)         │               0 │ batch_normalization_262[0… │
├───────────────────────────────┼───────────────────────────┼─────────────────┼────────────────────────────┤
│ conv2d_263 (Conv2D)           │ (None, 7, 7, 256)         │         590,080 │ re_lu_269[0][0]            │
├───────────────────────────────┼───────────────────────────┼─────────────────┼────────────────────────────┤
│ batch_normalization_263       │ (None, 7, 7, 256)         │           1,024 │ conv2d_263[0][0]           │
│ (BatchNormalization)          │                           │                 │                            │
├───────────────────────────────┼───────────────────────────┼─────────────────┼────────────────────────────┤
│ re_lu_270 (ReLU)              │ (None, 7, 7, 256)         │               0 │ batch_normalization_263[0… │
├───────────────────────────────┼───────────────────────────┼─────────────────┼────────────────────────────┤
│ conv2d_264 (Conv2D)           │ (None, 7, 7, 1024)        │         263,168 │ re_lu_270[0][0]            │
├───────────────────────────────┼───────────────────────────┼─────────────────┼────────────────────────────┤
│ batch_normalization_264       │ (None, 7, 7, 1024)        │           4,096 │ conv2d_264[0][0]           │
│ (BatchNormalization)          │                           │                 │                            │
├───────────────────────────────┼───────────────────────────┼─────────────────┼────────────────────────────┤
│ add_88 (Add)                  │ (None, 7, 7, 1024)        │               0 │ batch_normalization_264[0… │
│                               │                           │                 │ re_lu_268[0][0]            │
├───────────────────────────────┼───────────────────────────┼─────────────────┼────────────────────────────┤
│ re_lu_271 (ReLU)              │ (None, 7, 7, 1024)        │               0 │ add_88[0][0]               │
├───────────────────────────────┼───────────────────────────┼─────────────────┼────────────────────────────┤
│ conv2d_265 (Conv2D)           │ (None, 7, 7, 256)         │         262,400 │ re_lu_271[0][0]            │
├───────────────────────────────┼───────────────────────────┼─────────────────┼────────────────────────────┤
│ batch_normalization_265       │ (None, 7, 7, 256)         │           1,024 │ conv2d_265[0][0]           │
│ (BatchNormalization)          │                           │                 │                            │
├───────────────────────────────┼───────────────────────────┼─────────────────┼────────────────────────────┤
│ re_lu_272 (ReLU)              │ (None, 7, 7, 256)         │               0 │ batch_normalization_265[0… │
├───────────────────────────────┼───────────────────────────┼─────────────────┼────────────────────────────┤
│ conv2d_266 (Conv2D)           │ (None, 7, 7, 256)         │         590,080 │ re_lu_272[0][0]            │
├───────────────────────────────┼───────────────────────────┼─────────────────┼────────────────────────────┤
│ batch_normalization_266       │ (None, 7, 7, 256)         │           1,024 │ conv2d_266[0][0]           │
│ (BatchNormalization)          │                           │                 │                            │
├───────────────────────────────┼───────────────────────────┼─────────────────┼────────────────────────────┤
│ re_lu_273 (ReLU)              │ (None, 7, 7, 256)         │               0 │ batch_normalization_266[0… │
├───────────────────────────────┼───────────────────────────┼─────────────────┼────────────────────────────┤
│ conv2d_267 (Conv2D)           │ (None, 7, 7, 1024)        │         263,168 │ re_lu_273[0][0]            │
├───────────────────────────────┼───────────────────────────┼─────────────────┼────────────────────────────┤
│ batch_normalization_267       │ (None, 7, 7, 1024)        │           4,096 │ conv2d_267[0][0]           │
│ (BatchNormalization)          │                           │                 │                            │
├───────────────────────────────┼───────────────────────────┼─────────────────┼────────────────────────────┤
│ add_89 (Add)                  │ (None, 7, 7, 1024)        │               0 │ batch_normalization_267[0… │
│                               │                           │                 │ re_lu_271[0][0]            │
├───────────────────────────────┼───────────────────────────┼─────────────────┼────────────────────────────┤
│ re_lu_274 (ReLU)              │ (None, 7, 7, 1024)        │               0 │ add_89[0][0]               │
├───────────────────────────────┼───────────────────────────┼─────────────────┼────────────────────────────┤
│ conv2d_268 (Conv2D)           │ (None, 7, 7, 256)         │         262,400 │ re_lu_274[0][0]            │
├───────────────────────────────┼───────────────────────────┼─────────────────┼────────────────────────────┤
│ batch_normalization_268       │ (None, 7, 7, 256)         │           1,024 │ conv2d_268[0][0]           │
│ (BatchNormalization)          │                           │                 │                            │
├───────────────────────────────┼───────────────────────────┼─────────────────┼────────────────────────────┤
│ re_lu_275 (ReLU)              │ (None, 7, 7, 256)         │               0 │ batch_normalization_268[0… │
├───────────────────────────────┼───────────────────────────┼─────────────────┼────────────────────────────┤
│ conv2d_269 (Conv2D)           │ (None, 7, 7, 256)         │         590,080 │ re_lu_275[0][0]            │
├───────────────────────────────┼───────────────────────────┼─────────────────┼────────────────────────────┤
│ batch_normalization_269       │ (None, 7, 7, 256)         │           1,024 │ conv2d_269[0][0]           │
│ (BatchNormalization)          │                           │                 │                            │
├───────────────────────────────┼───────────────────────────┼─────────────────┼────────────────────────────┤
│ re_lu_276 (ReLU)              │ (None, 7, 7, 256)         │               0 │ batch_normalization_269[0… │
├───────────────────────────────┼───────────────────────────┼─────────────────┼────────────────────────────┤
│ conv2d_270 (Conv2D)           │ (None, 7, 7, 1024)        │         263,168 │ re_lu_276[0][0]            │
├───────────────────────────────┼───────────────────────────┼─────────────────┼────────────────────────────┤
│ batch_normalization_270       │ (None, 7, 7, 1024)        │           4,096 │ conv2d_270[0][0]           │
│ (BatchNormalization)          │                           │                 │                            │
├───────────────────────────────┼───────────────────────────┼─────────────────┼────────────────────────────┤
│ add_90 (Add)                  │ (None, 7, 7, 1024)        │               0 │ batch_normalization_270[0… │
│                               │                           │                 │ re_lu_274[0][0]            │
├───────────────────────────────┼───────────────────────────┼─────────────────┼────────────────────────────┤
│ re_lu_277 (ReLU)              │ (None, 7, 7, 1024)        │               0 │ add_90[0][0]               │
├───────────────────────────────┼───────────────────────────┼─────────────────┼────────────────────────────┤
│ conv2d_271 (Conv2D)           │ (None, 7, 7, 256)         │         262,400 │ re_lu_277[0][0]            │
├───────────────────────────────┼───────────────────────────┼─────────────────┼────────────────────────────┤
│ batch_normalization_271       │ (None, 7, 7, 256)         │           1,024 │ conv2d_271[0][0]           │
│ (BatchNormalization)          │                           │                 │                            │
├───────────────────────────────┼───────────────────────────┼─────────────────┼────────────────────────────┤
│ re_lu_278 (ReLU)              │ (None, 7, 7, 256)         │               0 │ batch_normalization_271[0… │
├───────────────────────────────┼───────────────────────────┼─────────────────┼────────────────────────────┤
│ conv2d_272 (Conv2D)           │ (None, 7, 7, 256)         │         590,080 │ re_lu_278[0][0]            │
├───────────────────────────────┼───────────────────────────┼─────────────────┼────────────────────────────┤
│ batch_normalization_272       │ (None, 7, 7, 256)         │           1,024 │ conv2d_272[0][0]           │
│ (BatchNormalization)          │                           │                 │                            │
├───────────────────────────────┼───────────────────────────┼─────────────────┼────────────────────────────┤
│ re_lu_279 (ReLU)              │ (None, 7, 7, 256)         │               0 │ batch_normalization_272[0… │
├───────────────────────────────┼───────────────────────────┼─────────────────┼────────────────────────────┤
│ conv2d_273 (Conv2D)           │ (None, 7, 7, 1024)        │         263,168 │ re_lu_279[0][0]            │
├───────────────────────────────┼───────────────────────────┼─────────────────┼────────────────────────────┤
│ batch_normalization_273       │ (None, 7, 7, 1024)        │           4,096 │ conv2d_273[0][0]           │
│ (BatchNormalization)          │                           │                 │                            │
├───────────────────────────────┼───────────────────────────┼─────────────────┼────────────────────────────┤
│ add_91 (Add)                  │ (None, 7, 7, 1024)        │               0 │ batch_normalization_273[0… │
│                               │                           │                 │ re_lu_277[0][0]            │
├───────────────────────────────┼───────────────────────────┼─────────────────┼────────────────────────────┤
│ re_lu_280 (ReLU)              │ (None, 7, 7, 1024)        │               0 │ add_91[0][0]               │
├───────────────────────────────┼───────────────────────────┼─────────────────┼────────────────────────────┤
│ conv2d_274 (Conv2D)           │ (None, 7, 7, 256)         │         262,400 │ re_lu_280[0][0]            │
├───────────────────────────────┼───────────────────────────┼─────────────────┼────────────────────────────┤
│ batch_normalization_274       │ (None, 7, 7, 256)         │           1,024 │ conv2d_274[0][0]           │
│ (BatchNormalization)          │                           │                 │                            │
├───────────────────────────────┼───────────────────────────┼─────────────────┼────────────────────────────┤
│ re_lu_281 (ReLU)              │ (None, 7, 7, 256)         │               0 │ batch_normalization_274[0… │
├───────────────────────────────┼───────────────────────────┼─────────────────┼────────────────────────────┤
│ conv2d_275 (Conv2D)           │ (None, 7, 7, 256)         │         590,080 │ re_lu_281[0][0]            │
├───────────────────────────────┼───────────────────────────┼─────────────────┼────────────────────────────┤
│ batch_normalization_275       │ (None, 7, 7, 256)         │           1,024 │ conv2d_275[0][0]           │
│ (BatchNormalization)          │                           │                 │                            │
├───────────────────────────────┼───────────────────────────┼─────────────────┼────────────────────────────┤
│ re_lu_282 (ReLU)              │ (None, 7, 7, 256)         │               0 │ batch_normalization_275[0… │
├───────────────────────────────┼───────────────────────────┼─────────────────┼────────────────────────────┤
│ conv2d_276 (Conv2D)           │ (None, 7, 7, 1024)        │         263,168 │ re_lu_282[0][0]            │
├───────────────────────────────┼───────────────────────────┼─────────────────┼────────────────────────────┤
│ batch_normalization_276       │ (None, 7, 7, 1024)        │           4,096 │ conv2d_276[0][0]           │
│ (BatchNormalization)          │                           │                 │                            │
├───────────────────────────────┼───────────────────────────┼─────────────────┼────────────────────────────┤
│ add_92 (Add)                  │ (None, 7, 7, 1024)        │               0 │ batch_normalization_276[0… │
│                               │                           │                 │ re_lu_280[0][0]            │
├───────────────────────────────┼───────────────────────────┼─────────────────┼────────────────────────────┤
│ re_lu_283 (ReLU)              │ (None, 7, 7, 1024)        │               0 │ add_92[0][0]               │
├───────────────────────────────┼───────────────────────────┼─────────────────┼────────────────────────────┤
│ conv2d_277 (Conv2D)           │ (None, 7, 7, 256)         │         262,400 │ re_lu_283[0][0]            │
├───────────────────────────────┼───────────────────────────┼─────────────────┼────────────────────────────┤
│ batch_normalization_277       │ (None, 7, 7, 256)         │           1,024 │ conv2d_277[0][0]           │
│ (BatchNormalization)          │                           │                 │                            │
├───────────────────────────────┼───────────────────────────┼─────────────────┼────────────────────────────┤
│ re_lu_284 (ReLU)              │ (None, 7, 7, 256)         │               0 │ batch_normalization_277[0… │
├───────────────────────────────┼───────────────────────────┼─────────────────┼────────────────────────────┤
│ conv2d_278 (Conv2D)           │ (None, 7, 7, 256)         │         590,080 │ re_lu_284[0][0]            │
├───────────────────────────────┼───────────────────────────┼─────────────────┼────────────────────────────┤
│ batch_normalization_278       │ (None, 7, 7, 256)         │           1,024 │ conv2d_278[0][0]           │
│ (BatchNormalization)          │                           │                 │                            │
├───────────────────────────────┼───────────────────────────┼─────────────────┼────────────────────────────┤
│ re_lu_285 (ReLU)              │ (None, 7, 7, 256)         │               0 │ batch_normalization_278[0… │
├───────────────────────────────┼───────────────────────────┼─────────────────┼────────────────────────────┤
│ conv2d_279 (Conv2D)           │ (None, 7, 7, 1024)        │         263,168 │ re_lu_285[0][0]            │
├───────────────────────────────┼───────────────────────────┼─────────────────┼────────────────────────────┤
│ batch_normalization_279       │ (None, 7, 7, 1024)        │           4,096 │ conv2d_279[0][0]           │
│ (BatchNormalization)          │                           │                 │                            │
├───────────────────────────────┼───────────────────────────┼─────────────────┼────────────────────────────┤
│ add_93 (Add)                  │ (None, 7, 7, 1024)        │               0 │ batch_normalization_279[0… │
│                               │                           │                 │ re_lu_283[0][0]            │
├───────────────────────────────┼───────────────────────────┼─────────────────┼────────────────────────────┤
│ re_lu_286 (ReLU)              │ (None, 7, 7, 1024)        │               0 │ add_93[0][0]               │
├───────────────────────────────┼───────────────────────────┼─────────────────┼────────────────────────────┤
│ conv2d_280 (Conv2D)           │ (None, 7, 7, 256)         │         262,400 │ re_lu_286[0][0]            │
├───────────────────────────────┼───────────────────────────┼─────────────────┼────────────────────────────┤
│ batch_normalization_280       │ (None, 7, 7, 256)         │           1,024 │ conv2d_280[0][0]           │
│ (BatchNormalization)          │                           │                 │                            │
├───────────────────────────────┼───────────────────────────┼─────────────────┼────────────────────────────┤
│ re_lu_287 (ReLU)              │ (None, 7, 7, 256)         │               0 │ batch_normalization_280[0… │
├───────────────────────────────┼───────────────────────────┼─────────────────┼────────────────────────────┤
│ conv2d_281 (Conv2D)           │ (None, 7, 7, 256)         │         590,080 │ re_lu_287[0][0]            │
├───────────────────────────────┼───────────────────────────┼─────────────────┼────────────────────────────┤
│ batch_normalization_281       │ (None, 7, 7, 256)         │           1,024 │ conv2d_281[0][0]           │
│ (BatchNormalization)          │                           │                 │                            │
├───────────────────────────────┼───────────────────────────┼─────────────────┼────────────────────────────┤
│ re_lu_288 (ReLU)              │ (None, 7, 7, 256)         │               0 │ batch_normalization_281[0… │
├───────────────────────────────┼───────────────────────────┼─────────────────┼────────────────────────────┤
│ conv2d_282 (Conv2D)           │ (None, 7, 7, 1024)        │         263,168 │ re_lu_288[0][0]            │
├───────────────────────────────┼───────────────────────────┼─────────────────┼────────────────────────────┤
│ batch_normalization_282       │ (None, 7, 7, 1024)        │           4,096 │ conv2d_282[0][0]           │
│ (BatchNormalization)          │                           │                 │                            │
├───────────────────────────────┼───────────────────────────┼─────────────────┼────────────────────────────┤
│ add_94 (Add)                  │ (None, 7, 7, 1024)        │               0 │ batch_normalization_282[0… │
│                               │                           │                 │ re_lu_286[0][0]            │
├───────────────────────────────┼───────────────────────────┼─────────────────┼────────────────────────────┤
│ re_lu_289 (ReLU)              │ (None, 7, 7, 1024)        │               0 │ add_94[0][0]               │
├───────────────────────────────┼───────────────────────────┼─────────────────┼────────────────────────────┤
│ conv2d_283 (Conv2D)           │ (None, 7, 7, 256)         │         262,400 │ re_lu_289[0][0]            │
├───────────────────────────────┼───────────────────────────┼─────────────────┼────────────────────────────┤
│ batch_normalization_283       │ (None, 7, 7, 256)         │           1,024 │ conv2d_283[0][0]           │
│ (BatchNormalization)          │                           │                 │                            │
├───────────────────────────────┼───────────────────────────┼─────────────────┼────────────────────────────┤
│ re_lu_290 (ReLU)              │ (None, 7, 7, 256)         │               0 │ batch_normalization_283[0… │
├───────────────────────────────┼───────────────────────────┼─────────────────┼────────────────────────────┤
│ conv2d_284 (Conv2D)           │ (None, 7, 7, 256)         │         590,080 │ re_lu_290[0][0]            │
├───────────────────────────────┼───────────────────────────┼─────────────────┼────────────────────────────┤
│ batch_normalization_284       │ (None, 7, 7, 256)         │           1,024 │ conv2d_284[0][0]           │
│ (BatchNormalization)          │                           │                 │                            │
├───────────────────────────────┼───────────────────────────┼─────────────────┼────────────────────────────┤
│ re_lu_291 (ReLU)              │ (None, 7, 7, 256)         │               0 │ batch_normalization_284[0… │
├───────────────────────────────┼───────────────────────────┼─────────────────┼────────────────────────────┤
│ conv2d_285 (Conv2D)           │ (None, 7, 7, 1024)        │         263,168 │ re_lu_291[0][0]            │
├───────────────────────────────┼───────────────────────────┼─────────────────┼────────────────────────────┤
│ batch_normalization_285       │ (None, 7, 7, 1024)        │           4,096 │ conv2d_285[0][0]           │
│ (BatchNormalization)          │                           │                 │                            │
├───────────────────────────────┼───────────────────────────┼─────────────────┼────────────────────────────┤
│ add_95 (Add)                  │ (None, 7, 7, 1024)        │               0 │ batch_normalization_285[0… │
│                               │                           │                 │ re_lu_289[0][0]            │
├───────────────────────────────┼───────────────────────────┼─────────────────┼────────────────────────────┤
│ re_lu_292 (ReLU)              │ (None, 7, 7, 1024)        │               0 │ add_95[0][0]               │
├───────────────────────────────┼───────────────────────────┼─────────────────┼────────────────────────────┤
│ conv2d_286 (Conv2D)           │ (None, 7, 7, 256)         │         262,400 │ re_lu_292[0][0]            │
├───────────────────────────────┼───────────────────────────┼─────────────────┼────────────────────────────┤
│ batch_normalization_286       │ (None, 7, 7, 256)         │           1,024 │ conv2d_286[0][0]           │
│ (BatchNormalization)          │                           │                 │                            │
├───────────────────────────────┼───────────────────────────┼─────────────────┼────────────────────────────┤
│ re_lu_293 (ReLU)              │ (None, 7, 7, 256)         │               0 │ batch_normalization_286[0… │
├───────────────────────────────┼───────────────────────────┼─────────────────┼────────────────────────────┤
│ conv2d_287 (Conv2D)           │ (None, 7, 7, 256)         │         590,080 │ re_lu_293[0][0]            │
├───────────────────────────────┼───────────────────────────┼─────────────────┼────────────────────────────┤
│ batch_normalization_287       │ (None, 7, 7, 256)         │           1,024 │ conv2d_287[0][0]           │
│ (BatchNormalization)          │                           │                 │                            │
├───────────────────────────────┼───────────────────────────┼─────────────────┼────────────────────────────┤
│ re_lu_294 (ReLU)              │ (None, 7, 7, 256)         │               0 │ batch_normalization_287[0… │
├───────────────────────────────┼───────────────────────────┼─────────────────┼────────────────────────────┤
│ conv2d_288 (Conv2D)           │ (None, 7, 7, 1024)        │         263,168 │ re_lu_294[0][0]            │
├───────────────────────────────┼───────────────────────────┼─────────────────┼────────────────────────────┤
│ batch_normalization_288       │ (None, 7, 7, 1024)        │           4,096 │ conv2d_288[0][0]           │
│ (BatchNormalization)          │                           │                 │                            │
├───────────────────────────────┼───────────────────────────┼─────────────────┼────────────────────────────┤
│ add_96 (Add)                  │ (None, 7, 7, 1024)        │               0 │ batch_normalization_288[0… │
│                               │                           │                 │ re_lu_292[0][0]            │
├───────────────────────────────┼───────────────────────────┼─────────────────┼────────────────────────────┤
│ re_lu_295 (ReLU)              │ (None, 7, 7, 1024)        │               0 │ add_96[0][0]               │
├───────────────────────────────┼───────────────────────────┼─────────────────┼────────────────────────────┤
│ conv2d_289 (Conv2D)           │ (None, 7, 7, 256)         │         262,400 │ re_lu_295[0][0]            │
├───────────────────────────────┼───────────────────────────┼─────────────────┼────────────────────────────┤
│ batch_normalization_289       │ (None, 7, 7, 256)         │           1,024 │ conv2d_289[0][0]           │
│ (BatchNormalization)          │                           │                 │                            │
├───────────────────────────────┼───────────────────────────┼─────────────────┼────────────────────────────┤
│ re_lu_296 (ReLU)              │ (None, 7, 7, 256)         │               0 │ batch_normalization_289[0… │
├───────────────────────────────┼───────────────────────────┼─────────────────┼────────────────────────────┤
│ conv2d_290 (Conv2D)           │ (None, 7, 7, 256)         │         590,080 │ re_lu_296[0][0]            │
├───────────────────────────────┼───────────────────────────┼─────────────────┼────────────────────────────┤
│ batch_normalization_290       │ (None, 7, 7, 256)         │           1,024 │ conv2d_290[0][0]           │
│ (BatchNormalization)          │                           │                 │                            │
├───────────────────────────────┼───────────────────────────┼─────────────────┼────────────────────────────┤
│ re_lu_297 (ReLU)              │ (None, 7, 7, 256)         │               0 │ batch_normalization_290[0… │
├───────────────────────────────┼───────────────────────────┼─────────────────┼────────────────────────────┤
│ conv2d_291 (Conv2D)           │ (None, 7, 7, 1024)        │         263,168 │ re_lu_297[0][0]            │
├───────────────────────────────┼───────────────────────────┼─────────────────┼────────────────────────────┤
│ batch_normalization_291       │ (None, 7, 7, 1024)        │           4,096 │ conv2d_291[0][0]           │
│ (BatchNormalization)          │                           │                 │                            │
├───────────────────────────────┼───────────────────────────┼─────────────────┼────────────────────────────┤
│ add_97 (Add)                  │ (None, 7, 7, 1024)        │               0 │ batch_normalization_291[0… │
│                               │                           │                 │ re_lu_295[0][0]            │
├───────────────────────────────┼───────────────────────────┼─────────────────┼────────────────────────────┤
│ re_lu_298 (ReLU)              │ (None, 7, 7, 1024)        │               0 │ add_97[0][0]               │
├───────────────────────────────┼───────────────────────────┼─────────────────┼────────────────────────────┤
│ conv2d_292 (Conv2D)           │ (None, 7, 7, 256)         │         262,400 │ re_lu_298[0][0]            │
├───────────────────────────────┼───────────────────────────┼─────────────────┼────────────────────────────┤
│ batch_normalization_292       │ (None, 7, 7, 256)         │           1,024 │ conv2d_292[0][0]           │
│ (BatchNormalization)          │                           │                 │                            │
├───────────────────────────────┼───────────────────────────┼─────────────────┼────────────────────────────┤
│ re_lu_299 (ReLU)              │ (None, 7, 7, 256)         │               0 │ batch_normalization_292[0… │
├───────────────────────────────┼───────────────────────────┼─────────────────┼────────────────────────────┤
│ conv2d_293 (Conv2D)           │ (None, 7, 7, 256)         │         590,080 │ re_lu_299[0][0]            │
├───────────────────────────────┼───────────────────────────┼─────────────────┼────────────────────────────┤
│ batch_normalization_293       │ (None, 7, 7, 256)         │           1,024 │ conv2d_293[0][0]           │
│ (BatchNormalization)          │                           │                 │                            │
├───────────────────────────────┼───────────────────────────┼─────────────────┼────────────────────────────┤
│ re_lu_300 (ReLU)              │ (None, 7, 7, 256)         │               0 │ batch_normalization_293[0… │
├───────────────────────────────┼───────────────────────────┼─────────────────┼────────────────────────────┤
│ conv2d_294 (Conv2D)           │ (None, 7, 7, 1024)        │         263,168 │ re_lu_300[0][0]            │
├───────────────────────────────┼───────────────────────────┼─────────────────┼────────────────────────────┤
│ batch_normalization_294       │ (None, 7, 7, 1024)        │           4,096 │ conv2d_294[0][0]           │
│ (BatchNormalization)          │                           │                 │                            │
├───────────────────────────────┼───────────────────────────┼─────────────────┼────────────────────────────┤
│ add_98 (Add)                  │ (None, 7, 7, 1024)        │               0 │ batch_normalization_294[0… │
│                               │                           │                 │ re_lu_298[0][0]            │
├───────────────────────────────┼───────────────────────────┼─────────────────┼────────────────────────────┤
│ re_lu_301 (ReLU)              │ (None, 7, 7, 1024)        │               0 │ add_98[0][0]               │
├───────────────────────────────┼───────────────────────────┼─────────────────┼────────────────────────────┤
│ conv2d_295 (Conv2D)           │ (None, 7, 7, 256)         │         262,400 │ re_lu_301[0][0]            │
├───────────────────────────────┼───────────────────────────┼─────────────────┼────────────────────────────┤
│ batch_normalization_295       │ (None, 7, 7, 256)         │           1,024 │ conv2d_295[0][0]           │
│ (BatchNormalization)          │                           │                 │                            │
├───────────────────────────────┼───────────────────────────┼─────────────────┼────────────────────────────┤
│ re_lu_302 (ReLU)              │ (None, 7, 7, 256)         │               0 │ batch_normalization_295[0… │
├───────────────────────────────┼───────────────────────────┼─────────────────┼────────────────────────────┤
│ conv2d_296 (Conv2D)           │ (None, 7, 7, 256)         │         590,080 │ re_lu_302[0][0]            │
├───────────────────────────────┼───────────────────────────┼─────────────────┼────────────────────────────┤
│ batch_normalization_296       │ (None, 7, 7, 256)         │           1,024 │ conv2d_296[0][0]           │
│ (BatchNormalization)          │                           │                 │                            │
├───────────────────────────────┼───────────────────────────┼─────────────────┼────────────────────────────┤
│ re_lu_303 (ReLU)              │ (None, 7, 7, 256)         │               0 │ batch_normalization_296[0… │
├───────────────────────────────┼───────────────────────────┼─────────────────┼────────────────────────────┤
│ conv2d_297 (Conv2D)           │ (None, 7, 7, 1024)        │         263,168 │ re_lu_303[0][0]            │
├───────────────────────────────┼───────────────────────────┼─────────────────┼────────────────────────────┤
│ batch_normalization_297       │ (None, 7, 7, 1024)        │           4,096 │ conv2d_297[0][0]           │
│ (BatchNormalization)          │                           │                 │                            │
├───────────────────────────────┼───────────────────────────┼─────────────────┼────────────────────────────┤
│ add_99 (Add)                  │ (None, 7, 7, 1024)        │               0 │ batch_normalization_297[0… │
│                               │                           │                 │ re_lu_301[0][0]            │
├───────────────────────────────┼───────────────────────────┼─────────────────┼────────────────────────────┤
│ re_lu_304 (ReLU)              │ (None, 7, 7, 1024)        │               0 │ add_99[0][0]               │
├───────────────────────────────┼───────────────────────────┼─────────────────┼────────────────────────────┤
│ conv2d_298 (Conv2D)           │ (None, 7, 7, 256)         │         262,400 │ re_lu_304[0][0]            │
├───────────────────────────────┼───────────────────────────┼─────────────────┼────────────────────────────┤
│ batch_normalization_298       │ (None, 7, 7, 256)         │           1,024 │ conv2d_298[0][0]           │
│ (BatchNormalization)          │                           │                 │                            │
├───────────────────────────────┼───────────────────────────┼─────────────────┼────────────────────────────┤
│ re_lu_305 (ReLU)              │ (None, 7, 7, 256)         │               0 │ batch_normalization_298[0… │
├───────────────────────────────┼───────────────────────────┼─────────────────┼────────────────────────────┤
│ conv2d_299 (Conv2D)           │ (None, 7, 7, 256)         │         590,080 │ re_lu_305[0][0]            │
├───────────────────────────────┼───────────────────────────┼─────────────────┼────────────────────────────┤
│ batch_normalization_299       │ (None, 7, 7, 256)         │           1,024 │ conv2d_299[0][0]           │
│ (BatchNormalization)          │                           │                 │                            │
├───────────────────────────────┼───────────────────────────┼─────────────────┼────────────────────────────┤
│ re_lu_306 (ReLU)              │ (None, 7, 7, 256)         │               0 │ batch_normalization_299[0… │
├───────────────────────────────┼───────────────────────────┼─────────────────┼────────────────────────────┤
│ conv2d_300 (Conv2D)           │ (None, 7, 7, 1024)        │         263,168 │ re_lu_306[0][0]            │
├───────────────────────────────┼───────────────────────────┼─────────────────┼────────────────────────────┤
│ batch_normalization_300       │ (None, 7, 7, 1024)        │           4,096 │ conv2d_300[0][0]           │
│ (BatchNormalization)          │                           │                 │                            │
├───────────────────────────────┼───────────────────────────┼─────────────────┼────────────────────────────┤
│ add_100 (Add)                 │ (None, 7, 7, 1024)        │               0 │ batch_normalization_300[0… │
│                               │                           │                 │ re_lu_304[0][0]            │
├───────────────────────────────┼───────────────────────────┼─────────────────┼────────────────────────────┤
│ re_lu_307 (ReLU)              │ (None, 7, 7, 1024)        │               0 │ add_100[0][0]              │
├───────────────────────────────┼───────────────────────────┼─────────────────┼────────────────────────────┤
│ conv2d_301 (Conv2D)           │ (None, 7, 7, 256)         │         262,400 │ re_lu_307[0][0]            │
├───────────────────────────────┼───────────────────────────┼─────────────────┼────────────────────────────┤
│ batch_normalization_301       │ (None, 7, 7, 256)         │           1,024 │ conv2d_301[0][0]           │
│ (BatchNormalization)          │                           │                 │                            │
├───────────────────────────────┼───────────────────────────┼─────────────────┼────────────────────────────┤
│ re_lu_308 (ReLU)              │ (None, 7, 7, 256)         │               0 │ batch_normalization_301[0… │
├───────────────────────────────┼───────────────────────────┼─────────────────┼────────────────────────────┤
│ conv2d_302 (Conv2D)           │ (None, 7, 7, 256)         │         590,080 │ re_lu_308[0][0]            │
├───────────────────────────────┼───────────────────────────┼─────────────────┼────────────────────────────┤
│ batch_normalization_302       │ (None, 7, 7, 256)         │           1,024 │ conv2d_302[0][0]           │
│ (BatchNormalization)          │                           │                 │                            │
├───────────────────────────────┼───────────────────────────┼─────────────────┼────────────────────────────┤
│ re_lu_309 (ReLU)              │ (None, 7, 7, 256)         │               0 │ batch_normalization_302[0… │
├───────────────────────────────┼───────────────────────────┼─────────────────┼────────────────────────────┤
│ conv2d_303 (Conv2D)           │ (None, 7, 7, 1024)        │         263,168 │ re_lu_309[0][0]            │
├───────────────────────────────┼───────────────────────────┼─────────────────┼────────────────────────────┤
│ batch_normalization_303       │ (None, 7, 7, 1024)        │           4,096 │ conv2d_303[0][0]           │
│ (BatchNormalization)          │                           │                 │                            │
├───────────────────────────────┼───────────────────────────┼─────────────────┼────────────────────────────┤
│ add_101 (Add)                 │ (None, 7, 7, 1024)        │               0 │ batch_normalization_303[0… │
│                               │                           │                 │ re_lu_307[0][0]            │
├───────────────────────────────┼───────────────────────────┼─────────────────┼────────────────────────────┤
│ re_lu_310 (ReLU)              │ (None, 7, 7, 1024)        │               0 │ add_101[0][0]              │
├───────────────────────────────┼───────────────────────────┼─────────────────┼────────────────────────────┤
│ conv2d_304 (Conv2D)           │ (None, 7, 7, 256)         │         262,400 │ re_lu_310[0][0]            │
├───────────────────────────────┼───────────────────────────┼─────────────────┼────────────────────────────┤
│ batch_normalization_304       │ (None, 7, 7, 256)         │           1,024 │ conv2d_304[0][0]           │
│ (BatchNormalization)          │                           │                 │                            │
├───────────────────────────────┼───────────────────────────┼─────────────────┼────────────────────────────┤
│ re_lu_311 (ReLU)              │ (None, 7, 7, 256)         │               0 │ batch_normalization_304[0… │
├───────────────────────────────┼───────────────────────────┼─────────────────┼────────────────────────────┤
│ conv2d_305 (Conv2D)           │ (None, 7, 7, 256)         │         590,080 │ re_lu_311[0][0]            │
├───────────────────────────────┼───────────────────────────┼─────────────────┼────────────────────────────┤
│ batch_normalization_305       │ (None, 7, 7, 256)         │           1,024 │ conv2d_305[0][0]           │
│ (BatchNormalization)          │                           │                 │                            │
├───────────────────────────────┼───────────────────────────┼─────────────────┼────────────────────────────┤
│ re_lu_312 (ReLU)              │ (None, 7, 7, 256)         │               0 │ batch_normalization_305[0… │
├───────────────────────────────┼───────────────────────────┼─────────────────┼────────────────────────────┤
│ conv2d_306 (Conv2D)           │ (None, 7, 7, 1024)        │         263,168 │ re_lu_312[0][0]            │
├───────────────────────────────┼───────────────────────────┼─────────────────┼────────────────────────────┤
│ batch_normalization_306       │ (None, 7, 7, 1024)        │           4,096 │ conv2d_306[0][0]           │
│ (BatchNormalization)          │                           │                 │                            │
├───────────────────────────────┼───────────────────────────┼─────────────────┼────────────────────────────┤
│ add_102 (Add)                 │ (None, 7, 7, 1024)        │               0 │ batch_normalization_306[0… │
│                               │                           │                 │ re_lu_310[0][0]            │
├───────────────────────────────┼───────────────────────────┼─────────────────┼────────────────────────────┤
│ re_lu_313 (ReLU)              │ (None, 7, 7, 1024)        │               0 │ add_102[0][0]              │
├───────────────────────────────┼───────────────────────────┼─────────────────┼────────────────────────────┤
│ conv2d_307 (Conv2D)           │ (None, 7, 7, 256)         │         262,400 │ re_lu_313[0][0]            │
├───────────────────────────────┼───────────────────────────┼─────────────────┼────────────────────────────┤
│ batch_normalization_307       │ (None, 7, 7, 256)         │           1,024 │ conv2d_307[0][0]           │
│ (BatchNormalization)          │                           │                 │                            │
├───────────────────────────────┼───────────────────────────┼─────────────────┼────────────────────────────┤
│ re_lu_314 (ReLU)              │ (None, 7, 7, 256)         │               0 │ batch_normalization_307[0… │
├───────────────────────────────┼───────────────────────────┼─────────────────┼────────────────────────────┤
│ conv2d_308 (Conv2D)           │ (None, 7, 7, 256)         │         590,080 │ re_lu_314[0][0]            │
├───────────────────────────────┼───────────────────────────┼─────────────────┼────────────────────────────┤
│ batch_normalization_308       │ (None, 7, 7, 256)         │           1,024 │ conv2d_308[0][0]           │
│ (BatchNormalization)          │                           │                 │                            │
├───────────────────────────────┼───────────────────────────┼─────────────────┼────────────────────────────┤
│ re_lu_315 (ReLU)              │ (None, 7, 7, 256)         │               0 │ batch_normalization_308[0… │
├───────────────────────────────┼───────────────────────────┼─────────────────┼────────────────────────────┤
│ conv2d_309 (Conv2D)           │ (None, 7, 7, 1024)        │         263,168 │ re_lu_315[0][0]            │
├───────────────────────────────┼───────────────────────────┼─────────────────┼────────────────────────────┤
│ batch_normalization_309       │ (None, 7, 7, 1024)        │           4,096 │ conv2d_309[0][0]           │
│ (BatchNormalization)          │                           │                 │                            │
├───────────────────────────────┼───────────────────────────┼─────────────────┼────────────────────────────┤
│ add_103 (Add)                 │ (None, 7, 7, 1024)        │               0 │ batch_normalization_309[0… │
│                               │                           │                 │ re_lu_313[0][0]            │
├───────────────────────────────┼───────────────────────────┼─────────────────┼────────────────────────────┤
│ re_lu_316 (ReLU)              │ (None, 7, 7, 1024)        │               0 │ add_103[0][0]              │
├───────────────────────────────┼───────────────────────────┼─────────────────┼────────────────────────────┤
│ conv2d_310 (Conv2D)           │ (None, 7, 7, 256)         │         262,400 │ re_lu_316[0][0]            │
├───────────────────────────────┼───────────────────────────┼─────────────────┼────────────────────────────┤
│ batch_normalization_310       │ (None, 7, 7, 256)         │           1,024 │ conv2d_310[0][0]           │
│ (BatchNormalization)          │                           │                 │                            │
├───────────────────────────────┼───────────────────────────┼─────────────────┼────────────────────────────┤
│ re_lu_317 (ReLU)              │ (None, 7, 7, 256)         │               0 │ batch_normalization_310[0… │
├───────────────────────────────┼───────────────────────────┼─────────────────┼────────────────────────────┤
│ conv2d_311 (Conv2D)           │ (None, 7, 7, 256)         │         590,080 │ re_lu_317[0][0]            │
├───────────────────────────────┼───────────────────────────┼─────────────────┼────────────────────────────┤
│ batch_normalization_311       │ (None, 7, 7, 256)         │           1,024 │ conv2d_311[0][0]           │
│ (BatchNormalization)          │                           │                 │                            │
├───────────────────────────────┼───────────────────────────┼─────────────────┼────────────────────────────┤
│ re_lu_318 (ReLU)              │ (None, 7, 7, 256)         │               0 │ batch_normalization_311[0… │
├───────────────────────────────┼───────────────────────────┼─────────────────┼────────────────────────────┤
│ conv2d_312 (Conv2D)           │ (None, 7, 7, 1024)        │         263,168 │ re_lu_318[0][0]            │
├───────────────────────────────┼───────────────────────────┼─────────────────┼────────────────────────────┤
│ batch_normalization_312       │ (None, 7, 7, 1024)        │           4,096 │ conv2d_312[0][0]           │
│ (BatchNormalization)          │                           │                 │                            │
├───────────────────────────────┼───────────────────────────┼─────────────────┼────────────────────────────┤
│ add_104 (Add)                 │ (None, 7, 7, 1024)        │               0 │ batch_normalization_312[0… │
│                               │                           │                 │ re_lu_316[0][0]            │
├───────────────────────────────┼───────────────────────────┼─────────────────┼────────────────────────────┤
│ re_lu_319 (ReLU)              │ (None, 7, 7, 1024)        │               0 │ add_104[0][0]              │
├───────────────────────────────┼───────────────────────────┼─────────────────┼────────────────────────────┤
│ conv2d_313 (Conv2D)           │ (None, 7, 7, 256)         │         262,400 │ re_lu_319[0][0]            │
├───────────────────────────────┼───────────────────────────┼─────────────────┼────────────────────────────┤
│ batch_normalization_313       │ (None, 7, 7, 256)         │           1,024 │ conv2d_313[0][0]           │
│ (BatchNormalization)          │                           │                 │                            │
├───────────────────────────────┼───────────────────────────┼─────────────────┼────────────────────────────┤
│ re_lu_320 (ReLU)              │ (None, 7, 7, 256)         │               0 │ batch_normalization_313[0… │
├───────────────────────────────┼───────────────────────────┼─────────────────┼────────────────────────────┤
│ conv2d_314 (Conv2D)           │ (None, 7, 7, 256)         │         590,080 │ re_lu_320[0][0]            │
├───────────────────────────────┼───────────────────────────┼─────────────────┼────────────────────────────┤
│ batch_normalization_314       │ (None, 7, 7, 256)         │           1,024 │ conv2d_314[0][0]           │
│ (BatchNormalization)          │                           │                 │                            │
├───────────────────────────────┼───────────────────────────┼─────────────────┼────────────────────────────┤
│ re_lu_321 (ReLU)              │ (None, 7, 7, 256)         │               0 │ batch_normalization_314[0… │
├───────────────────────────────┼───────────────────────────┼─────────────────┼────────────────────────────┤
│ conv2d_315 (Conv2D)           │ (None, 7, 7, 1024)        │         263,168 │ re_lu_321[0][0]            │
├───────────────────────────────┼───────────────────────────┼─────────────────┼────────────────────────────┤
│ batch_normalization_315       │ (None, 7, 7, 1024)        │           4,096 │ conv2d_315[0][0]           │
│ (BatchNormalization)          │                           │                 │                            │
├───────────────────────────────┼───────────────────────────┼─────────────────┼────────────────────────────┤
│ add_105 (Add)                 │ (None, 7, 7, 1024)        │               0 │ batch_normalization_315[0… │
│                               │                           │                 │ re_lu_319[0][0]            │
├───────────────────────────────┼───────────────────────────┼─────────────────┼────────────────────────────┤
│ re_lu_322 (ReLU)              │ (None, 7, 7, 1024)        │               0 │ add_105[0][0]              │
├───────────────────────────────┼───────────────────────────┼─────────────────┼────────────────────────────┤
│ conv2d_316 (Conv2D)           │ (None, 7, 7, 256)         │         262,400 │ re_lu_322[0][0]            │
├───────────────────────────────┼───────────────────────────┼─────────────────┼────────────────────────────┤
│ batch_normalization_316       │ (None, 7, 7, 256)         │           1,024 │ conv2d_316[0][0]           │
│ (BatchNormalization)          │                           │                 │                            │
├───────────────────────────────┼───────────────────────────┼─────────────────┼────────────────────────────┤
│ re_lu_323 (ReLU)              │ (None, 7, 7, 256)         │               0 │ batch_normalization_316[0… │
├───────────────────────────────┼───────────────────────────┼─────────────────┼────────────────────────────┤
│ conv2d_317 (Conv2D)           │ (None, 7, 7, 256)         │         590,080 │ re_lu_323[0][0]            │
├───────────────────────────────┼───────────────────────────┼─────────────────┼────────────────────────────┤
│ batch_normalization_317       │ (None, 7, 7, 256)         │           1,024 │ conv2d_317[0][0]           │
│ (BatchNormalization)          │                           │                 │                            │
├───────────────────────────────┼───────────────────────────┼─────────────────┼────────────────────────────┤
│ re_lu_324 (ReLU)              │ (None, 7, 7, 256)         │               0 │ batch_normalization_317[0… │
├───────────────────────────────┼───────────────────────────┼─────────────────┼────────────────────────────┤
│ conv2d_318 (Conv2D)           │ (None, 7, 7, 1024)        │         263,168 │ re_lu_324[0][0]            │
├───────────────────────────────┼───────────────────────────┼─────────────────┼────────────────────────────┤
│ batch_normalization_318       │ (None, 7, 7, 1024)        │           4,096 │ conv2d_318[0][0]           │
│ (BatchNormalization)          │                           │                 │                            │
├───────────────────────────────┼───────────────────────────┼─────────────────┼────────────────────────────┤
│ add_106 (Add)                 │ (None, 7, 7, 1024)        │               0 │ batch_normalization_318[0… │
│                               │                           │                 │ re_lu_322[0][0]            │
├───────────────────────────────┼───────────────────────────┼─────────────────┼────────────────────────────┤
│ re_lu_325 (ReLU)              │ (None, 7, 7, 1024)        │               0 │ add_106[0][0]              │
├───────────────────────────────┼───────────────────────────┼─────────────────┼────────────────────────────┤
│ conv2d_319 (Conv2D)           │ (None, 7, 7, 256)         │         262,400 │ re_lu_325[0][0]            │
├───────────────────────────────┼───────────────────────────┼─────────────────┼────────────────────────────┤
│ batch_normalization_319       │ (None, 7, 7, 256)         │           1,024 │ conv2d_319[0][0]           │
│ (BatchNormalization)          │                           │                 │                            │
├───────────────────────────────┼───────────────────────────┼─────────────────┼────────────────────────────┤
│ re_lu_326 (ReLU)              │ (None, 7, 7, 256)         │               0 │ batch_normalization_319[0… │
├───────────────────────────────┼───────────────────────────┼─────────────────┼────────────────────────────┤
│ conv2d_320 (Conv2D)           │ (None, 7, 7, 256)         │         590,080 │ re_lu_326[0][0]            │
├───────────────────────────────┼───────────────────────────┼─────────────────┼────────────────────────────┤
│ batch_normalization_320       │ (None, 7, 7, 256)         │           1,024 │ conv2d_320[0][0]           │
│ (BatchNormalization)          │                           │                 │                            │
├───────────────────────────────┼───────────────────────────┼─────────────────┼────────────────────────────┤
│ re_lu_327 (ReLU)              │ (None, 7, 7, 256)         │               0 │ batch_normalization_320[0… │
├───────────────────────────────┼───────────────────────────┼─────────────────┼────────────────────────────┤
│ conv2d_321 (Conv2D)           │ (None, 7, 7, 1024)        │         263,168 │ re_lu_327[0][0]            │
├───────────────────────────────┼───────────────────────────┼─────────────────┼────────────────────────────┤
│ batch_normalization_321       │ (None, 7, 7, 1024)        │           4,096 │ conv2d_321[0][0]           │
│ (BatchNormalization)          │                           │                 │                            │
├───────────────────────────────┼───────────────────────────┼─────────────────┼────────────────────────────┤
│ add_107 (Add)                 │ (None, 7, 7, 1024)        │               0 │ batch_normalization_321[0… │
│                               │                           │                 │ re_lu_325[0][0]            │
├───────────────────────────────┼───────────────────────────┼─────────────────┼────────────────────────────┤
│ re_lu_328 (ReLU)              │ (None, 7, 7, 1024)        │               0 │ add_107[0][0]              │
├───────────────────────────────┼───────────────────────────┼─────────────────┼────────────────────────────┤
│ conv2d_322 (Conv2D)           │ (None, 7, 7, 256)         │         262,400 │ re_lu_328[0][0]            │
├───────────────────────────────┼───────────────────────────┼─────────────────┼────────────────────────────┤
│ batch_normalization_322       │ (None, 7, 7, 256)         │           1,024 │ conv2d_322[0][0]           │
│ (BatchNormalization)          │                           │                 │                            │
├───────────────────────────────┼───────────────────────────┼─────────────────┼────────────────────────────┤
│ re_lu_329 (ReLU)              │ (None, 7, 7, 256)         │               0 │ batch_normalization_322[0… │
├───────────────────────────────┼───────────────────────────┼─────────────────┼────────────────────────────┤
│ conv2d_323 (Conv2D)           │ (None, 7, 7, 256)         │         590,080 │ re_lu_329[0][0]            │
├───────────────────────────────┼───────────────────────────┼─────────────────┼────────────────────────────┤
│ batch_normalization_323       │ (None, 7, 7, 256)         │           1,024 │ conv2d_323[0][0]           │
│ (BatchNormalization)          │                           │                 │                            │
├───────────────────────────────┼───────────────────────────┼─────────────────┼────────────────────────────┤
│ re_lu_330 (ReLU)              │ (None, 7, 7, 256)         │               0 │ batch_normalization_323[0… │
├───────────────────────────────┼───────────────────────────┼─────────────────┼────────────────────────────┤
│ conv2d_324 (Conv2D)           │ (None, 7, 7, 1024)        │         263,168 │ re_lu_330[0][0]            │
├───────────────────────────────┼───────────────────────────┼─────────────────┼────────────────────────────┤
│ batch_normalization_324       │ (None, 7, 7, 1024)        │           4,096 │ conv2d_324[0][0]           │
│ (BatchNormalization)          │                           │                 │                            │
├───────────────────────────────┼───────────────────────────┼─────────────────┼────────────────────────────┤
│ add_108 (Add)                 │ (None, 7, 7, 1024)        │               0 │ batch_normalization_324[0… │
│                               │                           │                 │ re_lu_328[0][0]            │
├───────────────────────────────┼───────────────────────────┼─────────────────┼────────────────────────────┤
│ re_lu_331 (ReLU)              │ (None, 7, 7, 1024)        │               0 │ add_108[0][0]              │
├───────────────────────────────┼───────────────────────────┼─────────────────┼────────────────────────────┤
│ conv2d_325 (Conv2D)           │ (None, 7, 7, 256)         │         262,400 │ re_lu_331[0][0]            │
├───────────────────────────────┼───────────────────────────┼─────────────────┼────────────────────────────┤
│ batch_normalization_325       │ (None, 7, 7, 256)         │           1,024 │ conv2d_325[0][0]           │
│ (BatchNormalization)          │                           │                 │                            │
├───────────────────────────────┼───────────────────────────┼─────────────────┼────────────────────────────┤
│ re_lu_332 (ReLU)              │ (None, 7, 7, 256)         │               0 │ batch_normalization_325[0… │
├───────────────────────────────┼───────────────────────────┼─────────────────┼────────────────────────────┤
│ conv2d_326 (Conv2D)           │ (None, 7, 7, 256)         │         590,080 │ re_lu_332[0][0]            │
├───────────────────────────────┼───────────────────────────┼─────────────────┼────────────────────────────┤
│ batch_normalization_326       │ (None, 7, 7, 256)         │           1,024 │ conv2d_326[0][0]           │
│ (BatchNormalization)          │                           │                 │                            │
├───────────────────────────────┼───────────────────────────┼─────────────────┼────────────────────────────┤
│ re_lu_333 (ReLU)              │ (None, 7, 7, 256)         │               0 │ batch_normalization_326[0… │
├───────────────────────────────┼───────────────────────────┼─────────────────┼────────────────────────────┤
│ conv2d_327 (Conv2D)           │ (None, 7, 7, 1024)        │         263,168 │ re_lu_333[0][0]            │
├───────────────────────────────┼───────────────────────────┼─────────────────┼────────────────────────────┤
│ batch_normalization_327       │ (None, 7, 7, 1024)        │           4,096 │ conv2d_327[0][0]           │
│ (BatchNormalization)          │                           │                 │                            │
├───────────────────────────────┼───────────────────────────┼─────────────────┼────────────────────────────┤
│ add_109 (Add)                 │ (None, 7, 7, 1024)        │               0 │ batch_normalization_327[0… │
│                               │                           │                 │ re_lu_331[0][0]            │
├───────────────────────────────┼───────────────────────────┼─────────────────┼────────────────────────────┤
│ re_lu_334 (ReLU)              │ (None, 7, 7, 1024)        │               0 │ add_109[0][0]              │
├───────────────────────────────┼───────────────────────────┼─────────────────┼────────────────────────────┤
│ conv2d_328 (Conv2D)           │ (None, 7, 7, 256)         │         262,400 │ re_lu_334[0][0]            │
├───────────────────────────────┼───────────────────────────┼─────────────────┼────────────────────────────┤
│ batch_normalization_328       │ (None, 7, 7, 256)         │           1,024 │ conv2d_328[0][0]           │
│ (BatchNormalization)          │                           │                 │                            │
├───────────────────────────────┼───────────────────────────┼─────────────────┼────────────────────────────┤
│ re_lu_335 (ReLU)              │ (None, 7, 7, 256)         │               0 │ batch_normalization_328[0… │
├───────────────────────────────┼───────────────────────────┼─────────────────┼────────────────────────────┤
│ conv2d_329 (Conv2D)           │ (None, 7, 7, 256)         │         590,080 │ re_lu_335[0][0]            │
├───────────────────────────────┼───────────────────────────┼─────────────────┼────────────────────────────┤
│ batch_normalization_329       │ (None, 7, 7, 256)         │           1,024 │ conv2d_329[0][0]           │
│ (BatchNormalization)          │                           │                 │                            │
├───────────────────────────────┼───────────────────────────┼─────────────────┼────────────────────────────┤
│ re_lu_336 (ReLU)              │ (None, 7, 7, 256)         │               0 │ batch_normalization_329[0… │
├───────────────────────────────┼───────────────────────────┼─────────────────┼────────────────────────────┤
│ conv2d_330 (Conv2D)           │ (None, 7, 7, 1024)        │         263,168 │ re_lu_336[0][0]            │
├───────────────────────────────┼───────────────────────────┼─────────────────┼────────────────────────────┤
│ batch_normalization_330       │ (None, 7, 7, 1024)        │           4,096 │ conv2d_330[0][0]           │
│ (BatchNormalization)          │                           │                 │                            │
├───────────────────────────────┼───────────────────────────┼─────────────────┼────────────────────────────┤
│ add_110 (Add)                 │ (None, 7, 7, 1024)        │               0 │ batch_normalization_330[0… │
│                               │                           │                 │ re_lu_334[0][0]            │
├───────────────────────────────┼───────────────────────────┼─────────────────┼────────────────────────────┤
│ re_lu_337 (ReLU)              │ (None, 7, 7, 1024)        │               0 │ add_110[0][0]              │
├───────────────────────────────┼───────────────────────────┼─────────────────┼────────────────────────────┤
│ conv2d_331 (Conv2D)           │ (None, 7, 7, 256)         │         262,400 │ re_lu_337[0][0]            │
├───────────────────────────────┼───────────────────────────┼─────────────────┼────────────────────────────┤
│ batch_normalization_331       │ (None, 7, 7, 256)         │           1,024 │ conv2d_331[0][0]           │
│ (BatchNormalization)          │                           │                 │                            │
├───────────────────────────────┼───────────────────────────┼─────────────────┼────────────────────────────┤
│ re_lu_338 (ReLU)              │ (None, 7, 7, 256)         │               0 │ batch_normalization_331[0… │
├───────────────────────────────┼───────────────────────────┼─────────────────┼────────────────────────────┤
│ conv2d_332 (Conv2D)           │ (None, 7, 7, 256)         │         590,080 │ re_lu_338[0][0]            │
├───────────────────────────────┼───────────────────────────┼─────────────────┼────────────────────────────┤
│ batch_normalization_332       │ (None, 7, 7, 256)         │           1,024 │ conv2d_332[0][0]           │
│ (BatchNormalization)          │                           │                 │                            │
├───────────────────────────────┼───────────────────────────┼─────────────────┼────────────────────────────┤
│ re_lu_339 (ReLU)              │ (None, 7, 7, 256)         │               0 │ batch_normalization_332[0… │
├───────────────────────────────┼───────────────────────────┼─────────────────┼────────────────────────────┤
│ conv2d_333 (Conv2D)           │ (None, 7, 7, 1024)        │         263,168 │ re_lu_339[0][0]            │
├───────────────────────────────┼───────────────────────────┼─────────────────┼────────────────────────────┤
│ batch_normalization_333       │ (None, 7, 7, 1024)        │           4,096 │ conv2d_333[0][0]           │
│ (BatchNormalization)          │                           │                 │                            │
├───────────────────────────────┼───────────────────────────┼─────────────────┼────────────────────────────┤
│ add_111 (Add)                 │ (None, 7, 7, 1024)        │               0 │ batch_normalization_333[0… │
│                               │                           │                 │ re_lu_337[0][0]            │
├───────────────────────────────┼───────────────────────────┼─────────────────┼────────────────────────────┤
│ re_lu_340 (ReLU)              │ (None, 7, 7, 1024)        │               0 │ add_111[0][0]              │
├───────────────────────────────┼───────────────────────────┼─────────────────┼────────────────────────────┤
│ conv2d_334 (Conv2D)           │ (None, 7, 7, 256)         │         262,400 │ re_lu_340[0][0]            │
├───────────────────────────────┼───────────────────────────┼─────────────────┼────────────────────────────┤
│ batch_normalization_334       │ (None, 7, 7, 256)         │           1,024 │ conv2d_334[0][0]           │
│ (BatchNormalization)          │                           │                 │                            │
├───────────────────────────────┼───────────────────────────┼─────────────────┼────────────────────────────┤
│ re_lu_341 (ReLU)              │ (None, 7, 7, 256)         │               0 │ batch_normalization_334[0… │
├───────────────────────────────┼───────────────────────────┼─────────────────┼────────────────────────────┤
│ conv2d_335 (Conv2D)           │ (None, 7, 7, 256)         │         590,080 │ re_lu_341[0][0]            │
├───────────────────────────────┼───────────────────────────┼─────────────────┼────────────────────────────┤
│ batch_normalization_335       │ (None, 7, 7, 256)         │           1,024 │ conv2d_335[0][0]           │
│ (BatchNormalization)          │                           │                 │                            │
├───────────────────────────────┼───────────────────────────┼─────────────────┼────────────────────────────┤
│ re_lu_342 (ReLU)              │ (None, 7, 7, 256)         │               0 │ batch_normalization_335[0… │
├───────────────────────────────┼───────────────────────────┼─────────────────┼────────────────────────────┤
│ conv2d_336 (Conv2D)           │ (None, 7, 7, 1024)        │         263,168 │ re_lu_342[0][0]            │
├───────────────────────────────┼───────────────────────────┼─────────────────┼────────────────────────────┤
│ batch_normalization_336       │ (None, 7, 7, 1024)        │           4,096 │ conv2d_336[0][0]           │
│ (BatchNormalization)          │                           │                 │                            │
├───────────────────────────────┼───────────────────────────┼─────────────────┼────────────────────────────┤
│ add_112 (Add)                 │ (None, 7, 7, 1024)        │               0 │ batch_normalization_336[0… │
│                               │                           │                 │ re_lu_340[0][0]            │
├───────────────────────────────┼───────────────────────────┼─────────────────┼────────────────────────────┤
│ re_lu_343 (ReLU)              │ (None, 7, 7, 1024)        │               0 │ add_112[0][0]              │
├───────────────────────────────┼───────────────────────────┼─────────────────┼────────────────────────────┤
│ conv2d_337 (Conv2D)           │ (None, 7, 7, 256)         │         262,400 │ re_lu_343[0][0]            │
├───────────────────────────────┼───────────────────────────┼─────────────────┼────────────────────────────┤
│ batch_normalization_337       │ (None, 7, 7, 256)         │           1,024 │ conv2d_337[0][0]           │
│ (BatchNormalization)          │                           │                 │                            │
├───────────────────────────────┼───────────────────────────┼─────────────────┼────────────────────────────┤
│ re_lu_344 (ReLU)              │ (None, 7, 7, 256)         │               0 │ batch_normalization_337[0… │
├───────────────────────────────┼───────────────────────────┼─────────────────┼────────────────────────────┤
│ conv2d_338 (Conv2D)           │ (None, 7, 7, 256)         │         590,080 │ re_lu_344[0][0]            │
├───────────────────────────────┼───────────────────────────┼─────────────────┼────────────────────────────┤
│ batch_normalization_338       │ (None, 7, 7, 256)         │           1,024 │ conv2d_338[0][0]           │
│ (BatchNormalization)          │                           │                 │                            │
├───────────────────────────────┼───────────────────────────┼─────────────────┼────────────────────────────┤
│ re_lu_345 (ReLU)              │ (None, 7, 7, 256)         │               0 │ batch_normalization_338[0… │
├───────────────────────────────┼───────────────────────────┼─────────────────┼────────────────────────────┤
│ conv2d_339 (Conv2D)           │ (None, 7, 7, 1024)        │         263,168 │ re_lu_345[0][0]            │
├───────────────────────────────┼───────────────────────────┼─────────────────┼────────────────────────────┤
│ batch_normalization_339       │ (None, 7, 7, 1024)        │           4,096 │ conv2d_339[0][0]           │
│ (BatchNormalization)          │                           │                 │                            │
├───────────────────────────────┼───────────────────────────┼─────────────────┼────────────────────────────┤
│ add_113 (Add)                 │ (None, 7, 7, 1024)        │               0 │ batch_normalization_339[0… │
│                               │                           │                 │ re_lu_343[0][0]            │
├───────────────────────────────┼───────────────────────────┼─────────────────┼────────────────────────────┤
│ re_lu_346 (ReLU)              │ (None, 7, 7, 1024)        │               0 │ add_113[0][0]              │
├───────────────────────────────┼───────────────────────────┼─────────────────┼────────────────────────────┤
│ conv2d_340 (Conv2D)           │ (None, 7, 7, 256)         │         262,400 │ re_lu_346[0][0]            │
├───────────────────────────────┼───────────────────────────┼─────────────────┼────────────────────────────┤
│ batch_normalization_340       │ (None, 7, 7, 256)         │           1,024 │ conv2d_340[0][0]           │
│ (BatchNormalization)          │                           │                 │                            │
├───────────────────────────────┼───────────────────────────┼─────────────────┼────────────────────────────┤
│ re_lu_347 (ReLU)              │ (None, 7, 7, 256)         │               0 │ batch_normalization_340[0… │
├───────────────────────────────┼───────────────────────────┼─────────────────┼────────────────────────────┤
│ conv2d_341 (Conv2D)           │ (None, 7, 7, 256)         │         590,080 │ re_lu_347[0][0]            │
├───────────────────────────────┼───────────────────────────┼─────────────────┼────────────────────────────┤
│ batch_normalization_341       │ (None, 7, 7, 256)         │           1,024 │ conv2d_341[0][0]           │
│ (BatchNormalization)          │                           │                 │                            │
├───────────────────────────────┼───────────────────────────┼─────────────────┼────────────────────────────┤
│ re_lu_348 (ReLU)              │ (None, 7, 7, 256)         │               0 │ batch_normalization_341[0… │
├───────────────────────────────┼───────────────────────────┼─────────────────┼────────────────────────────┤
│ conv2d_342 (Conv2D)           │ (None, 7, 7, 1024)        │         263,168 │ re_lu_348[0][0]            │
├───────────────────────────────┼───────────────────────────┼─────────────────┼────────────────────────────┤
│ batch_normalization_342       │ (None, 7, 7, 1024)        │           4,096 │ conv2d_342[0][0]           │
│ (BatchNormalization)          │                           │                 │                            │
├───────────────────────────────┼───────────────────────────┼─────────────────┼────────────────────────────┤
│ add_114 (Add)                 │ (None, 7, 7, 1024)        │               0 │ batch_normalization_342[0… │
│                               │                           │                 │ re_lu_346[0][0]            │
├───────────────────────────────┼───────────────────────────┼─────────────────┼────────────────────────────┤
│ re_lu_349 (ReLU)              │ (None, 7, 7, 1024)        │               0 │ add_114[0][0]              │
├───────────────────────────────┼───────────────────────────┼─────────────────┼────────────────────────────┤
│ conv2d_343 (Conv2D)           │ (None, 7, 7, 256)         │         262,400 │ re_lu_349[0][0]            │
├───────────────────────────────┼───────────────────────────┼─────────────────┼────────────────────────────┤
│ batch_normalization_343       │ (None, 7, 7, 256)         │           1,024 │ conv2d_343[0][0]           │
│ (BatchNormalization)          │                           │                 │                            │
├───────────────────────────────┼───────────────────────────┼─────────────────┼────────────────────────────┤
│ re_lu_350 (ReLU)              │ (None, 7, 7, 256)         │               0 │ batch_normalization_343[0… │
├───────────────────────────────┼───────────────────────────┼─────────────────┼────────────────────────────┤
│ conv2d_344 (Conv2D)           │ (None, 7, 7, 256)         │         590,080 │ re_lu_350[0][0]            │
├───────────────────────────────┼───────────────────────────┼─────────────────┼────────────────────────────┤
│ batch_normalization_344       │ (None, 7, 7, 256)         │           1,024 │ conv2d_344[0][0]           │
│ (BatchNormalization)          │                           │                 │                            │
├───────────────────────────────┼───────────────────────────┼─────────────────┼────────────────────────────┤
│ re_lu_351 (ReLU)              │ (None, 7, 7, 256)         │               0 │ batch_normalization_344[0… │
├───────────────────────────────┼───────────────────────────┼─────────────────┼────────────────────────────┤
│ conv2d_345 (Conv2D)           │ (None, 7, 7, 1024)        │         263,168 │ re_lu_351[0][0]            │
├───────────────────────────────┼───────────────────────────┼─────────────────┼────────────────────────────┤
│ batch_normalization_345       │ (None, 7, 7, 1024)        │           4,096 │ conv2d_345[0][0]           │
│ (BatchNormalization)          │                           │                 │                            │
├───────────────────────────────┼───────────────────────────┼─────────────────┼────────────────────────────┤
│ add_115 (Add)                 │ (None, 7, 7, 1024)        │               0 │ batch_normalization_345[0… │
│                               │                           │                 │ re_lu_349[0][0]            │
├───────────────────────────────┼───────────────────────────┼─────────────────┼────────────────────────────┤
│ re_lu_352 (ReLU)              │ (None, 7, 7, 1024)        │               0 │ add_115[0][0]              │
├───────────────────────────────┼───────────────────────────┼─────────────────┼────────────────────────────┤
│ conv2d_346 (Conv2D)           │ (None, 7, 7, 256)         │         262,400 │ re_lu_352[0][0]            │
├───────────────────────────────┼───────────────────────────┼─────────────────┼────────────────────────────┤
│ batch_normalization_346       │ (None, 7, 7, 256)         │           1,024 │ conv2d_346[0][0]           │
│ (BatchNormalization)          │                           │                 │                            │
├───────────────────────────────┼───────────────────────────┼─────────────────┼────────────────────────────┤
│ re_lu_353 (ReLU)              │ (None, 7, 7, 256)         │               0 │ batch_normalization_346[0… │
├───────────────────────────────┼───────────────────────────┼─────────────────┼────────────────────────────┤
│ conv2d_347 (Conv2D)           │ (None, 7, 7, 256)         │         590,080 │ re_lu_353[0][0]            │
├───────────────────────────────┼───────────────────────────┼─────────────────┼────────────────────────────┤
│ batch_normalization_347       │ (None, 7, 7, 256)         │           1,024 │ conv2d_347[0][0]           │
│ (BatchNormalization)          │                           │                 │                            │
├───────────────────────────────┼───────────────────────────┼─────────────────┼────────────────────────────┤
│ re_lu_354 (ReLU)              │ (None, 7, 7, 256)         │               0 │ batch_normalization_347[0… │
├───────────────────────────────┼───────────────────────────┼─────────────────┼────────────────────────────┤
│ conv2d_348 (Conv2D)           │ (None, 7, 7, 1024)        │         263,168 │ re_lu_354[0][0]            │
├───────────────────────────────┼───────────────────────────┼─────────────────┼────────────────────────────┤
│ batch_normalization_348       │ (None, 7, 7, 1024)        │           4,096 │ conv2d_348[0][0]           │
│ (BatchNormalization)          │                           │                 │                            │
├───────────────────────────────┼───────────────────────────┼─────────────────┼────────────────────────────┤
│ add_116 (Add)                 │ (None, 7, 7, 1024)        │               0 │ batch_normalization_348[0… │
│                               │                           │                 │ re_lu_352[0][0]            │
├───────────────────────────────┼───────────────────────────┼─────────────────┼────────────────────────────┤
│ re_lu_355 (ReLU)              │ (None, 7, 7, 1024)        │               0 │ add_116[0][0]              │
├───────────────────────────────┼───────────────────────────┼─────────────────┼────────────────────────────┤
│ conv2d_349 (Conv2D)           │ (None, 7, 7, 256)         │         262,400 │ re_lu_355[0][0]            │
├───────────────────────────────┼───────────────────────────┼─────────────────┼────────────────────────────┤
│ batch_normalization_349       │ (None, 7, 7, 256)         │           1,024 │ conv2d_349[0][0]           │
│ (BatchNormalization)          │                           │                 │                            │
├───────────────────────────────┼───────────────────────────┼─────────────────┼────────────────────────────┤
│ re_lu_356 (ReLU)              │ (None, 7, 7, 256)         │               0 │ batch_normalization_349[0… │
├───────────────────────────────┼───────────────────────────┼─────────────────┼────────────────────────────┤
│ conv2d_350 (Conv2D)           │ (None, 7, 7, 256)         │         590,080 │ re_lu_356[0][0]            │
├───────────────────────────────┼───────────────────────────┼─────────────────┼────────────────────────────┤
│ batch_normalization_350       │ (None, 7, 7, 256)         │           1,024 │ conv2d_350[0][0]           │
│ (BatchNormalization)          │                           │                 │                            │
├───────────────────────────────┼───────────────────────────┼─────────────────┼────────────────────────────┤
│ re_lu_357 (ReLU)              │ (None, 7, 7, 256)         │               0 │ batch_normalization_350[0… │
├───────────────────────────────┼───────────────────────────┼─────────────────┼────────────────────────────┤
│ conv2d_351 (Conv2D)           │ (None, 7, 7, 1024)        │         263,168 │ re_lu_357[0][0]            │
├───────────────────────────────┼───────────────────────────┼─────────────────┼────────────────────────────┤
│ batch_normalization_351       │ (None, 7, 7, 1024)        │           4,096 │ conv2d_351[0][0]           │
│ (BatchNormalization)          │                           │                 │                            │
├───────────────────────────────┼───────────────────────────┼─────────────────┼────────────────────────────┤
│ add_117 (Add)                 │ (None, 7, 7, 1024)        │               0 │ batch_normalization_351[0… │
│                               │                           │                 │ re_lu_355[0][0]            │
├───────────────────────────────┼───────────────────────────┼─────────────────┼────────────────────────────┤
│ re_lu_358 (ReLU)              │ (None, 7, 7, 1024)        │               0 │ add_117[0][0]              │
├───────────────────────────────┼───────────────────────────┼─────────────────┼────────────────────────────┤
│ conv2d_352 (Conv2D)           │ (None, 7, 7, 256)         │         262,400 │ re_lu_358[0][0]            │
├───────────────────────────────┼───────────────────────────┼─────────────────┼────────────────────────────┤
│ batch_normalization_352       │ (None, 7, 7, 256)         │           1,024 │ conv2d_352[0][0]           │
│ (BatchNormalization)          │                           │                 │                            │
├───────────────────────────────┼───────────────────────────┼─────────────────┼────────────────────────────┤
│ re_lu_359 (ReLU)              │ (None, 7, 7, 256)         │               0 │ batch_normalization_352[0… │
├───────────────────────────────┼───────────────────────────┼─────────────────┼────────────────────────────┤
│ conv2d_353 (Conv2D)           │ (None, 7, 7, 256)         │         590,080 │ re_lu_359[0][0]            │
├───────────────────────────────┼───────────────────────────┼─────────────────┼────────────────────────────┤
│ batch_normalization_353       │ (None, 7, 7, 256)         │           1,024 │ conv2d_353[0][0]           │
│ (BatchNormalization)          │                           │                 │                            │
├───────────────────────────────┼───────────────────────────┼─────────────────┼────────────────────────────┤
│ re_lu_360 (ReLU)              │ (None, 7, 7, 256)         │               0 │ batch_normalization_353[0… │
├───────────────────────────────┼───────────────────────────┼─────────────────┼────────────────────────────┤
│ conv2d_354 (Conv2D)           │ (None, 7, 7, 1024)        │         263,168 │ re_lu_360[0][0]            │
├───────────────────────────────┼───────────────────────────┼─────────────────┼────────────────────────────┤
│ batch_normalization_354       │ (None, 7, 7, 1024)        │           4,096 │ conv2d_354[0][0]           │
│ (BatchNormalization)          │                           │                 │                            │
├───────────────────────────────┼───────────────────────────┼─────────────────┼────────────────────────────┤
│ add_118 (Add)                 │ (None, 7, 7, 1024)        │               0 │ batch_normalization_354[0… │
│                               │                           │                 │ re_lu_358[0][0]            │
├───────────────────────────────┼───────────────────────────┼─────────────────┼────────────────────────────┤
│ re_lu_361 (ReLU)              │ (None, 7, 7, 1024)        │               0 │ add_118[0][0]              │
├───────────────────────────────┼───────────────────────────┼─────────────────┼────────────────────────────┤
│ conv2d_355 (Conv2D)           │ (None, 7, 7, 256)         │         262,400 │ re_lu_361[0][0]            │
├───────────────────────────────┼───────────────────────────┼─────────────────┼────────────────────────────┤
│ batch_normalization_355       │ (None, 7, 7, 256)         │           1,024 │ conv2d_355[0][0]           │
│ (BatchNormalization)          │                           │                 │                            │
├───────────────────────────────┼───────────────────────────┼─────────────────┼────────────────────────────┤
│ re_lu_362 (ReLU)              │ (None, 7, 7, 256)         │               0 │ batch_normalization_355[0… │
├───────────────────────────────┼───────────────────────────┼─────────────────┼────────────────────────────┤
│ conv2d_356 (Conv2D)           │ (None, 7, 7, 256)         │         590,080 │ re_lu_362[0][0]            │
├───────────────────────────────┼───────────────────────────┼─────────────────┼────────────────────────────┤
│ batch_normalization_356       │ (None, 7, 7, 256)         │           1,024 │ conv2d_356[0][0]           │
│ (BatchNormalization)          │                           │                 │                            │
├───────────────────────────────┼───────────────────────────┼─────────────────┼────────────────────────────┤
│ re_lu_363 (ReLU)              │ (None, 7, 7, 256)         │               0 │ batch_normalization_356[0… │
├───────────────────────────────┼───────────────────────────┼─────────────────┼────────────────────────────┤
│ conv2d_357 (Conv2D)           │ (None, 7, 7, 1024)        │         263,168 │ re_lu_363[0][0]            │
├───────────────────────────────┼───────────────────────────┼─────────────────┼────────────────────────────┤
│ batch_normalization_357       │ (None, 7, 7, 1024)        │           4,096 │ conv2d_357[0][0]           │
│ (BatchNormalization)          │                           │                 │                            │
├───────────────────────────────┼───────────────────────────┼─────────────────┼────────────────────────────┤
│ add_119 (Add)                 │ (None, 7, 7, 1024)        │               0 │ batch_normalization_357[0… │
│                               │                           │                 │ re_lu_361[0][0]            │
├───────────────────────────────┼───────────────────────────┼─────────────────┼────────────────────────────┤
│ re_lu_364 (ReLU)              │ (None, 7, 7, 1024)        │               0 │ add_119[0][0]              │
├───────────────────────────────┼───────────────────────────┼─────────────────┼────────────────────────────┤
│ conv2d_358 (Conv2D)           │ (None, 4, 4, 512)         │         524,800 │ re_lu_364[0][0]            │
├───────────────────────────────┼───────────────────────────┼─────────────────┼────────────────────────────┤
│ batch_normalization_358       │ (None, 4, 4, 512)         │           2,048 │ conv2d_358[0][0]           │
│ (BatchNormalization)          │                           │                 │                            │
├───────────────────────────────┼───────────────────────────┼─────────────────┼────────────────────────────┤
│ re_lu_365 (ReLU)              │ (None, 4, 4, 512)         │               0 │ batch_normalization_358[0… │
├───────────────────────────────┼───────────────────────────┼─────────────────┼────────────────────────────┤
│ conv2d_359 (Conv2D)           │ (None, 4, 4, 512)         │       2,359,808 │ re_lu_365[0][0]            │
├───────────────────────────────┼───────────────────────────┼─────────────────┼────────────────────────────┤
│ batch_normalization_359       │ (None, 4, 4, 512)         │           2,048 │ conv2d_359[0][0]           │
│ (BatchNormalization)          │                           │                 │                            │
├───────────────────────────────┼───────────────────────────┼─────────────────┼────────────────────────────┤
│ re_lu_366 (ReLU)              │ (None, 4, 4, 512)         │               0 │ batch_normalization_359[0… │
├───────────────────────────────┼───────────────────────────┼─────────────────┼────────────────────────────┤
│ conv2d_360 (Conv2D)           │ (None, 4, 4, 2048)        │       1,050,624 │ re_lu_366[0][0]            │
├───────────────────────────────┼───────────────────────────┼─────────────────┼────────────────────────────┤
│ conv2d_361 (Conv2D)           │ (None, 4, 4, 2048)        │       2,099,200 │ re_lu_364[0][0]            │
├───────────────────────────────┼───────────────────────────┼─────────────────┼────────────────────────────┤
│ batch_normalization_360       │ (None, 4, 4, 2048)        │           8,192 │ conv2d_360[0][0]           │
│ (BatchNormalization)          │                           │                 │                            │
├───────────────────────────────┼───────────────────────────┼─────────────────┼────────────────────────────┤
│ batch_normalization_361       │ (None, 4, 4, 2048)        │           8,192 │ conv2d_361[0][0]           │
│ (BatchNormalization)          │                           │                 │                            │
├───────────────────────────────┼───────────────────────────┼─────────────────┼────────────────────────────┤
│ add_120 (Add)                 │ (None, 4, 4, 2048)        │               0 │ batch_normalization_360[0… │
│                               │                           │                 │ batch_normalization_361[0… │
├───────────────────────────────┼───────────────────────────┼─────────────────┼────────────────────────────┤
│ re_lu_367 (ReLU)              │ (None, 4, 4, 2048)        │               0 │ add_120[0][0]              │
├───────────────────────────────┼───────────────────────────┼─────────────────┼────────────────────────────┤
│ conv2d_362 (Conv2D)           │ (None, 4, 4, 512)         │       1,049,088 │ re_lu_367[0][0]            │
├───────────────────────────────┼───────────────────────────┼─────────────────┼────────────────────────────┤
│ batch_normalization_362       │ (None, 4, 4, 512)         │           2,048 │ conv2d_362[0][0]           │
│ (BatchNormalization)          │                           │                 │                            │
├───────────────────────────────┼───────────────────────────┼─────────────────┼────────────────────────────┤
│ re_lu_368 (ReLU)              │ (None, 4, 4, 512)         │               0 │ batch_normalization_362[0… │
├───────────────────────────────┼───────────────────────────┼─────────────────┼────────────────────────────┤
│ conv2d_363 (Conv2D)           │ (None, 4, 4, 512)         │       2,359,808 │ re_lu_368[0][0]            │
├───────────────────────────────┼───────────────────────────┼─────────────────┼────────────────────────────┤
│ batch_normalization_363       │ (None, 4, 4, 512)         │           2,048 │ conv2d_363[0][0]           │
│ (BatchNormalization)          │                           │                 │                            │
├───────────────────────────────┼───────────────────────────┼─────────────────┼────────────────────────────┤
│ re_lu_369 (ReLU)              │ (None, 4, 4, 512)         │               0 │ batch_normalization_363[0… │
├───────────────────────────────┼───────────────────────────┼─────────────────┼────────────────────────────┤
│ conv2d_364 (Conv2D)           │ (None, 4, 4, 2048)        │       1,050,624 │ re_lu_369[0][0]            │
├───────────────────────────────┼───────────────────────────┼─────────────────┼────────────────────────────┤
│ batch_normalization_364       │ (None, 4, 4, 2048)        │           8,192 │ conv2d_364[0][0]           │
│ (BatchNormalization)          │                           │                 │                            │
├───────────────────────────────┼───────────────────────────┼─────────────────┼────────────────────────────┤
│ add_121 (Add)                 │ (None, 4, 4, 2048)        │               0 │ batch_normalization_364[0… │
│                               │                           │                 │ re_lu_367[0][0]            │
├───────────────────────────────┼───────────────────────────┼─────────────────┼────────────────────────────┤
│ re_lu_370 (ReLU)              │ (None, 4, 4, 2048)        │               0 │ add_121[0][0]              │
├───────────────────────────────┼───────────────────────────┼─────────────────┼────────────────────────────┤
│ conv2d_365 (Conv2D)           │ (None, 4, 4, 512)         │       1,049,088 │ re_lu_370[0][0]            │
├───────────────────────────────┼───────────────────────────┼─────────────────┼────────────────────────────┤
│ batch_normalization_365       │ (None, 4, 4, 512)         │           2,048 │ conv2d_365[0][0]           │
│ (BatchNormalization)          │                           │                 │                            │
├───────────────────────────────┼───────────────────────────┼─────────────────┼────────────────────────────┤
│ re_lu_371 (ReLU)              │ (None, 4, 4, 512)         │               0 │ batch_normalization_365[0… │
├───────────────────────────────┼───────────────────────────┼─────────────────┼────────────────────────────┤
│ conv2d_366 (Conv2D)           │ (None, 4, 4, 512)         │       2,359,808 │ re_lu_371[0][0]            │
├───────────────────────────────┼───────────────────────────┼─────────────────┼────────────────────────────┤
│ batch_normalization_366       │ (None, 4, 4, 512)         │           2,048 │ conv2d_366[0][0]           │
│ (BatchNormalization)          │                           │                 │                            │
├───────────────────────────────┼───────────────────────────┼─────────────────┼────────────────────────────┤
│ re_lu_372 (ReLU)              │ (None, 4, 4, 512)         │               0 │ batch_normalization_366[0… │
├───────────────────────────────┼───────────────────────────┼─────────────────┼────────────────────────────┤
│ conv2d_367 (Conv2D)           │ (None, 4, 4, 2048)        │       1,050,624 │ re_lu_372[0][0]            │
├───────────────────────────────┼───────────────────────────┼─────────────────┼────────────────────────────┤
│ batch_normalization_367       │ (None, 4, 4, 2048)        │           8,192 │ conv2d_367[0][0]           │
│ (BatchNormalization)          │                           │                 │                            │
├───────────────────────────────┼───────────────────────────┼─────────────────┼────────────────────────────┤
│ add_122 (Add)                 │ (None, 4, 4, 2048)        │               0 │ batch_normalization_367[0… │
│                               │                           │                 │ re_lu_370[0][0]            │
├───────────────────────────────┼───────────────────────────┼─────────────────┼────────────────────────────┤
│ re_lu_373 (ReLU)              │ (None, 4, 4, 2048)        │               0 │ add_122[0][0]              │
├───────────────────────────────┼───────────────────────────┼─────────────────┼────────────────────────────┤
│ global_average_pooling2d_4    │ (None, 2048)              │               0 │ re_lu_373[0][0]            │
│ (GlobalAveragePooling2D)      │                           │                 │                            │
├───────────────────────────────┼───────────────────────────┼─────────────────┼────────────────────────────┤
│ dense_4 (Dense)               │ (None, 1000)              │       2,049,000 │ global_average_pooling2d_… │
├───────────────────────────────┼───────────────────────────┼─────────────────┼────────────────────────────┤
│ softmax_4 (Softmax)           │ (None, 1000)              │               0 │ dense_4[0][0]              │
└───────────────────────────────┴───────────────────────────┴─────────────────┴────────────────────────────┘
 Total params: 60,419,944 (230.48 MB)
 Trainable params: 60,268,520 (229.91 MB)
 Non-trainable params: 151,424 (591.50 KB)

